output/experiment/models/model.onnx (onnx, 262344 bytes, 11 tensors)

onnx::Conv_98 f4 [16]
00000000: 0000 0000 0000 0000 0000 0000 0000 0000
00000010: 0000 0000 0000 0000 0000 0000 0000 0000
00000020: 0000 0000 0000 0000 0000 0000 0000 0000
00000030: 0000 0000 0000 0000 0000 0000 0000 0000
0.0 0.0 0.0 0.0 0.0 0.0 0.0 0.0
0.0 0.0 0.0 0.0 0.0 0.0 0.0 0.0

onnx::Conv_97 f4 [16, 2, 5, 5]
00000000: a34d dabd ed96 c03b d8d2 fabc f4b0 92bc
00000010: 6efb 843d e7a1 72bd 5af3 9cbd d8ca 583c
00000020: 4ab4 c53c 25bd 7ebd e0cc 4ebd 3cc8 d4bd
00000030: 2bf2 853d 9448 71bd 2a3b 643d 98c5 c3bd
00000040: e40e 9ebd 7cb7 78bb 1111 eb3d b2c2 75bc
00000050: cf8f 35bc 6cff cfbc 2854 883c 6ff8 11bd
00000060: 15de b63d 0afe 403c ae65 733d 382c 7a3b
00000070: eb80 b13d cb6c 95bd 308f 71bd 8dff 3abd
00000080: 4e4f 44bd 9bf9 063c 44e4 5a3d e32d aebd
00000090: eb66 a6bd 073d 8f3d 5d1d 593d f90f c73c
000000a0: 7232 483d 2c35 5d3c e3e3 21bd 02b0 97bc
000000b0: 8f22 f8bc 9aa9 47bd 6cea 8fbd 635c 8ebc
000000c0: 6883 98bd 53ba 88bd 7b08 94bd a97f db3d
000000d0: e55c e93d eac4 813d 2981 c0bc 228a f83c
000000e0: 0aa3 433d b4b1 933c b09b 743d 994e 323d
000000f0: 01cd 183d 95e4 e03d ac54 c4bd 3948 353c
00000100: 4d50 bd3d 7e74 c13d 03be 05bd d5bb 9d3d
00000110: 7de3 8cbd b508 eebb 0714 d63d 80e6 a0bc
00000120: c006 763d 1b04 ec3d d8af 49bd 4ea6 493d
00000130: e2e4 39bd 4f35 02bd 8c53 af3d 5bce 153d
00000140: cf96 cdbd 85a6 dd3d 8737 a73d d846 833d
00000150: 799d 563c eaa6 593d c3da 13bd 0211 25bd
00000160: 9a08 793d 59c1 933c f198 e23d 3ed1 073b
00000170: 53c7 d7bb d158 893d ee27 66bd 2215 d2bd
00000180: 7faf 7d3b f7aa e83d b1b0 b4bd 9080 943c
00000190: e5c1 9abd 6032 cbbd 4c2e 5fba 5849 28bd
000001a0: f99a e1bc 71e1 1b3d bfcb ddbc e803 543c
000001b0: 338b 34bb 7d32 b43d 9941 233d 6f57 2bbd
000001c0: 33e1 b1bd 1eef 9c3d 464a 49bc eb37 3e3d
000001d0: ba9b 4cbd e394 a73d 5d48 a03d 0c26 b43b
000001e0: cc5f f53c c70f be3c 473c 333d 7e68 6cbc
000001f0: dcc0 cbbd 789a a5bd 5e8b 923c 9289 ebbd
00000200: 878f e1bd 894d 82bd 0baf 743d 247e 0dbc
00000210: 8802 a8bd aedd 9dbd b9d1 37bd 3e43 aebd
00000220: b4a9 dc3d 9a8c 97bd 2ab2 7abd 5e3c a6bd
00000230: f121 2bbd 2d05 bc3d cc29 2d3d 26eb 0c3c
00000240: 8454 e9bd f62b 3f3d f949 dd3d 9b00 f2ba
00000250: 40cb a03d 9898 18bd cbbe ddbd a40a 3dbb
00000260: 9a8a 3c3d 70c6 4fbd ad43 db3b b12c 9e3c
00000270: 97f9 e23d 7ebb 76bd ee74 cdbd 3243 5cbd
00000280: 076c aa3d da89 5bbd 8442 f8bb 3c0b aabd
00000290: 687e 73bd 6cf2 cabd 167d 0d3d 929a 9f3d
000002a0: 95e6 7bbc 4d22 09bc 6a84 f23c 0941 8bbc
000002b0: c8ea 1e3c 5e4c 423d f201 b63d 646f 713d
000002c0: 2f88 e73c 099b ca3d afcd d2bd 77b4 9bbd
000002d0: a13e c03d fedb db3d 3179 5cbd daac b93d
000002e0: 3d0a 59bc 8527 04bd 7b13 92bb 59e9 f5bc
000002f0: 253d 023d cc8f 0f3c 8c53 17ba 26da 46bd
00000300: 76a4 8f3d 188b 92bd 2cce cfba e3be 9b3d
00000310: 5821 7cbd d8e3 9dbd 1e79 fb3c 388f c3bd
00000320: fe39 45bd 9360 ce3d 795a 883d acdb d53d
00000330: ca17 e2bd cd66 debd 777b eb3c 498d 273d
00000340: 970e 89bd 7c44 2a3d 706f a33c 021d 49bd
00000350: 4bc9 dc3d f99e b53d f4e5 c33d 3f3d 1abd
00000360: 44b0 333a ca36 61bd e889 c13d 34d3 d63d
00000370: 028d 6abd a075 093d e0e1 c83d 07a9 703c
00000380: dc30 1fbd d9a5 90bc 3321 9bbd fa95 e73d
00000390: 3a14 6dbd b7db ce3c 2a04 cfbd 8f45 363c
000003a0: 3cee a63d 5b6b c2bd 2ed9 273d 4c21 1c3b
000003b0: 9405 803d d476 5ebd 2188 8dbd aa83 53bd
000003c0: 9887 89bc 9e34 c73d e26d e8bb c488 adbd
000003d0: 0f67 86bd 4492 dfbc a79c 0abd 8a5d 24bc
000003e0: 6969 3ebd f787 61bd 8211 043d d186 0d3d
000003f0: c09b 46bd f698 323d 3b43 3bbd f9e2 b03b
-0.10659339 0.0058773668 -0.030618116 -0.017906643 0.06493269 -0.059236433 -0.07663603 0.0132319555
0.02413382 -0.0621921 -0.050488353 -0.10389754 0.065403305 -0.058907107 0.055720486 -0.095591724
-0.07717684 -0.0037951162 0.114778645 -0.015000032 -0.01108165 -0.02539035 0.016641691 -0.035637315
0.089290775 0.011779318 0.05942314 0.003817333 0.08667167 -0.07296141 -0.058974445 -0.04565387
-0.047927193 0.0082382215 0.053440347 -0.08504846 -0.08125099 0.06994062 0.05300652 0.024299609
0.048876233 0.013501447 -0.03952397 -0.018516544 -0.030289916 -0.04874573 -0.07027134 -0.017378038
-0.07446939 -0.066761635 -0.0722818 0.107177086 0.11394671 0.063363865 -0.023499088 0.030339304
0.047762908 0.018029071 0.059718788 0.043531988 0.037304882 0.109810986 -0.095864624 0.0110645825
0.09243832 0.09446047 -0.032651912 0.07701842 -0.068793274 -0.0072642216 0.10453039 -0.019641161
0.06006503 0.115242206 -0.049239963 0.049230866 -0.045384295 -0.03178912 0.08560857 0.03657375
-0.1003853 0.10822777 0.08164888 0.06409997 0.013099068 0.053137697 -0.0360973 -0.040299423
0.06079922 0.018036531 0.110643275 0.0020724083 -0.0065850406 0.067063935 -0.056190424 -0.10257937
0.003870934 0.11360734 -0.08822764 0.01812771 -0.07556514 -0.09921718 -0.00085136737 -0.04108557
-0.027539717 0.038056795 -0.027074693 0.012940384 -0.002754879 0.087986924 0.03985748 -0.04183143
-0.086855315 0.076627955 -0.012285775 0.046440046 -0.0499532 0.08182695 0.07826302 0.0054976996
0.029952906 0.023200883 0.043758657 -0.01442921 -0.099488944 -0.08086103 0.017888721 -0.11500849
-0.11013704 -0.06362445 0.059737246 -0.008636031 -0.08203608 -0.07708298 -0.04487774 -0.08508919
0.10774556 -0.073998645 -0.061205067 -0.08116983 -0.041780416 0.09180675 0.04227619 0.008600986
-0.11393073 0.046672784 0.10805125 -0.0018463315 0.07851267 -0.0372549 -0.108274065 -0.0028845454
0.04603062 -0.050726354 0.006691417 0.01930842 0.11082762 -0.0602374 -0.10032068 -0.05377502
0.08321386 -0.053598262 -0.0075762887 -0.08302924 -0.059446722 -0.099095196 0.03454312 0.07793154
-0.015374799 -0.008369994 0.029604156 -0.016998785 0.009699531 0.04743611 0.0888709 0.05894412
0.02826318 0.09892852 -0.10293137 -0.0760278 0.093869455 0.107353196 -0.053826515 0.09066172
-0.01324707 -0.03226425 -0.0044578887 -0.030018495 0.031796593 0.008762311 -0.00057726423 -0.048547886
0.0701379 -0.07155436 -0.0015854291 0.07604768 -0.061555237 -0.07709473 0.030697402 -0.09548801
-0.04815101 0.10077014 0.06657881 0.1044229 -0.11039694 -0.108594514 0.028745396 0.040906224
-0.06692236 0.041569218 0.019950598 -0.04909993 0.10780581 0.08868212 0.095653445 -0.037656065
0.0006854574 -0.05498389 0.09450132 0.104895025 -0.05726338 0.03355944 0.09808707 0.014688737
-0.038864955 -0.017657207 -0.075746916 0.11307903 -0.057880618 0.025251253 -0.10108216 0.0111249825
0.08150908 -0.09493133 0.040978603 0.0023823557 0.06251064 -0.054312542 -0.0691073 -0.051639237
-0.016788289 0.09726833 -0.007093177 -0.084733516 -0.065626256 -0.027291425 -0.0338408 -0.010032067
-0.046487246 -0.055061307 0.03224326 0.0345524 -0.04848838 0.043602906 -0.045718413 0.005398151

onnx::Conv_100 f4 [64, 16, 3, 3]
00000000: 236f b0bd ee66 9a3c 27c0 1b3d b57f a9bd
00000010: b082 343d 2be7 563d 5c63 a63d b616 1a3d
00000020: 577b 763d 3463 4b3c b1fe 023b 35b8 fcbc
00000030: 462f 8bbc 483b 6b3c 2319 9e3c 5ef9 613d
00000040: 6a78 433b 79ac a23d 0142 5abd 3abc b13c
00000050: 6150 c63c 7cf1 9abd e319 1d3d 48ec e7bb
00000060: 743e 063c d0a1 a1bc abd2 eabc b180 283d
00000070: 9d45 ddbc 867d 2b3d ba2a 96bd 9bc9 a3bd
00000080: 5917 d2bc f199 6ebd 085c 8d3c 1608 7fbd
00000090: 5fa7 82bd 49a9 2b3d fad3 2e3d 88b5 8d3d
000000a0: 14e2 ad3c 94e9 e3bb dd1c 6dbd f0e4 a03c
000000b0: 15a5 c03c ba9c 9d3d dbe8 79bd 89de 003c
000000c0: 3f0d 40bc 243d 4cbd 814a 5fbc bb38 4a3d
000000d0: 2a7a b5bd 7829 593c d0cd 88bd f14d ffba
000000e0: 4471 30bc 6ac7 6fbc 047b 4a3d b9cb 49bd
000000f0: 1d58 babc c397 a5bd d0f6 033c bee0 993d
00000100: 246c c2bc 3102 aabd 93bf b9bb 5fad 453d
00000110: 94c8 87bc 71a3 433d d4b2 503d 60ec ac3d
00000120: 2d3a acbd 2a64 223d a990 323d b760 22bd
00000130: c789 243d b012 aabd 999d ac3d 2495 303b
00000140: 6535 3b3c f3a1 43bc 4ec1 32bc 42fa 043d
00000150: bd8c 8d3d 95d7 a7bd ad1b 673d 2557 64bd
00000160: a02a 9bbc bdde 46bc 7edd b93c c854 9b3d
00000170: 7372 b83d 6c61 2dbd 4b53 aabd 8dc8 443d
00000180: 9f2e c4bc 28c5 b03b a77d 09bd 7afe 3cbd
00000190: 5b59 8b3a 2a27 a4bb cff8 98bd 3507 95bd
000001a0: 51d6 16bd 9e85 6dbc 34ee 83bd 4a90 e9bb
000001b0: d13f 32bd 67c0 833b 39d9 8f3d 1ae0 8d3d
000001c0: 51f1 073d 34bf ca3b 890d 363d 5276 06bd
000001d0: 86ea 67bd 4763 9a3d 1f13 913d 5c6b abbd
000001e0: a96a 373d 1987 093d c7f9 dcbc 7cf2 8dbd
000001f0: fa87 653c 36f5 1a3d 7524 b4bb 005f 66bd
00000200: 99e4 16bd 6a60 cebc afc7 a63d 8268 10bd
00000210: eb04 a1bd 414b 893d 9d12 bbbb 41f4 8dbd
00000220: 8ce6 7c3d 7f2a 7b3d edca 8a3c edd2 aa3d
00000230: ebe8 a33d 3a6f f239 e594 32bb ed7b 1a3b
00000240: 4626 0d3d 040d acbd e3a5 333d aa94 973d
00000250: a6bd 2e3c 5a6e 223d db61 90bd 2a92 4ebd
00000260: 09eb 503d d912 503d d33e 63bd 4800 b0bd
00000270: 07e6 1d3d 85ac 973c 27c5 913b 6f63 e83c
00000280: 38f9 1fbd 8a9b 11bd fa32 4f3d 9240 23bc
00000290: 4eed db3b ab3c 973d e728 31bd 622f 21bb
000002a0: e133 863d 4820 00bd ed33 15bc 9f6a 573a
000002b0: 3c54 80bb 21b8 93bc 78c5 78bd 069a a9bb
000002c0: 9df8 67bd dbdd b2bd cf2d a4bd 07ad 60bd
000002d0: 1950 723d 83b5 76bd dfd6 843c db52 c2bc
000002e0: 547e 6e3d 3de1 1dbd d0d1 183d 8bee c7bc
000002f0: 27dc 20bd 96c3 ec3c 66d5 c4bb d814 af3d
00000300: f289 5e3d bb2e dfbc b554 533c 6753 c0bc
00000310: de37 b03c 9b07 953a 40b1 7ebc 9bbd 53bd
00000320: 5a64 903d 65e7 5fbd 5907 b1bd b731 8bbd
00000330: 864b 5d3d e7e9 723d 3173 b43d 8e6a 2abd
00000340: ecf6 7cbc 3695 a2bd 7063 5fbd a414 683d
00000350: 88a7 753d 3a25 aebd 2e8d 7dbc 851d 6fbd
00000360: cdc8 7ebc b1b5 953d 28fb fdbc 1441 64bc
00000370: 7035 89bd 141d cdbb 041e 153d 1c72 763c
00000380: 292b 95bd d806 97bd 6062 66bd fed5 943d
00000390: 7bed 6fbb 6256 b83d 33b0 95bd 6e77 203d
000003a0: e470 f73b 094a e53b d90e 7bbd fd2d a0bd
000003b0: 5992 59bd 6d63 ac3d 0396 9f3d 99aa 833d
000003c0: 3dd6 ccbc 984a 953d 662b 5fbd f748 ba3d
000003d0: 8190 69bd a166 223c 932a d83c e92b 263d
000003e0: 64ee b93d 24f1 2b3d 7baa 76bc 0510 9ebd
000003f0: 9ab1 f1bc 7f1a 693d f93e 22bd a293 9bbd
-0.08614948 0.018847909 0.038025048 -0.08276311 0.044069946 0.052466553 0.0812442 0.037619315
0.06017622 0.012413789 0.0019988234 -0.030849556 -0.016990315 0.0143573955 0.019299095 0.055169456
0.002982641 0.07943053 -0.053285602 0.021696199 0.02420825 -0.07565591 0.038354766 -0.0070777275
0.008193601 -0.019730479 -0.028664907 0.041138355 -0.027010733 0.041867755 -0.07332368 -0.079974376
-0.025645899 -0.05825228 0.017255798 -0.06226357 -0.0637958 0.04190949 0.042682625 0.0691939
0.021225967 -0.006955335 -0.057888854 0.019640416 0.023516217 0.07695909 -0.061013084 0.0078655565
-0.011721908 -0.049862996 -0.013628603 0.04937051 -0.088611916 0.013254516 -0.066798806 -0.0019478184
-0.010769192 -0.014634946 0.049433723 -0.04926655 -0.022747094 -0.08085587 0.00805445 0.07513569
-0.023733206 -0.08301199 -0.0056685894 0.048261043 -0.016575135 0.04776329 0.050951794 0.084435225
-0.08409534 0.039646305 0.04359499 -0.039643016 0.040170457 -0.083043456 0.08428497 0.0026944363
0.0114263045 -0.011940467 -0.010910345 0.032465227 0.06911609 -0.08195416 0.056422878 -0.05574717
-0.018941224 -0.012138066 0.022688624 0.0758453 0.090062045 -0.042329237 -0.08316668 0.048042823
-0.023948012 0.0053945966 -0.033567097 -0.046141125 0.0010631488 -0.0050095515 -0.074693315 -0.07276765
-0.03682548 -0.014497189 -0.06441918 -0.0071277963 -0.04351789 0.004020739 0.07023854 0.069275096
0.03318912 0.006187344 0.044446502 -0.032827683 -0.056620143 0.07538467 0.07083725 -0.083700866
0.044779453 0.033576105 -0.026974572 -0.06931016 0.01400947 0.037831508 -0.00549751 -0.056242943
-0.0368391 -0.025192458 0.081435554 -0.035255916 -0.07862266 0.06703807 -0.005709006 -0.06931353
0.061743304 0.061319824 0.016942466 0.08341012 0.0800341 0.00046240707 -0.0027249393 0.00235724
0.03446033 -0.0840092 0.043859374 0.07401402 0.010665333 0.03965602 -0.070499144 -0.05043236
0.051005397 0.050799225 -0.055479836 -0.08593804 0.03854945 0.01851488 0.004448551 0.028367726
-0.039056033 -0.035548724 0.050585724 -0.009964125 0.0067116385 0.07384618 -0.0432519 -0.0024594893
0.06552864 -0.031280786 -0.009106618 0.0008217487 -0.0039162915 -0.018032135 -0.060735196 -0.0051758317
-0.05663358 -0.08733722 -0.0801655 -0.05485251 0.05915842 -0.060231697 0.01621574 -0.02372115
0.058225945 -0.038544882 0.037309468 -0.024405738 -0.039272454 0.028901856 -0.0060068844 0.085488975
0.054330774 -0.027243963 0.012898614 -0.02347727 0.021511015 0.0011370064 -0.015545189 -0.051694494
0.070503905 -0.054664034 -0.086439796 -0.06796592 0.054027103 0.059305098 0.088110335 -0.041605525
-0.01543973 -0.07938616 -0.05453819 0.05666031 0.059974223 -0.08503194 -0.015475554 -0.05837776
-0.015550804 0.073100455 -0.03100355 -0.013931531 -0.066996455 -0.00625957 0.03640558 0.015041854
-0.07283623 -0.07374352 -0.05624616 0.07267378 -0.0036610055 0.09000851 -0.07308998 0.039176397
0.0075512994 0.006997351 -0.061293457 -0.078212716 -0.053118084 0.084174015 0.07792284 0.06429023
-0.0250045 0.07289618 -0.054484747 0.09095948 -0.057022575 0.009912164 0.026387488 0.04056922
0.090786725 0.041978016 -0.015055294 -0.07717899 -0.029503632 0.056910034 -0.039610837 -0.07596518

onnx::Conv_101 f4 [64]
00000000: 0000 0000 0000 0000 0000 0000 0000 0000
00000010: 0000 0000 0000 0000 0000 0000 0000 0000
00000020: 0000 0000 0000 0000 0000 0000 0000 0000
00000030: 0000 0000 0000 0000 0000 0000 0000 0000
00000040: 0000 0000 0000 0000 0000 0000 0000 0000
00000050: 0000 0000 0000 0000 0000 0000 0000 0000
00000060: 0000 0000 0000 0000 0000 0000 0000 0000
00000070: 0000 0000 0000 0000 0000 0000 0000 0000
00000080: 0000 0000 0000 0000 0000 0000 0000 0000
00000090: 0000 0000 0000 0000 0000 0000 0000 0000
000000a0: 0000 0000 0000 0000 0000 0000 0000 0000
000000b0: 0000 0000 0000 0000 0000 0000 0000 0000
000000c0: 0000 0000 0000 0000 0000 0000 0000 0000
000000d0: 0000 0000 0000 0000 0000 0000 0000 0000
000000e0: 0000 0000 0000 0000 0000 0000 0000 0000
000000f0: 0000 0000 0000 0000 0000 0000 0000 0000
0.0 0.0 0.0 0.0 0.0 0.0 0.0 0.0
0.0 0.0 0.0 0.0 0.0 0.0 0.0 0.0
0.0 0.0 0.0 0.0 0.0 0.0 0.0 0.0
0.0 0.0 0.0 0.0 0.0 0.0 0.0 0.0
0.0 0.0 0.0 0.0 0.0 0.0 0.0 0.0
0.0 0.0 0.0 0.0 0.0 0.0 0.0 0.0
0.0 0.0 0.0 0.0 0.0 0.0 0.0 0.0
0.0 0.0 0.0 0.0 0.0 0.0 0.0 0.0

onnx::Conv_103 f4 [16, 64, 3, 3]
00000000: 9fe0 9dbd d0d3 83bd 8a30 0a3d a186 26bd
00000010: 9e20 e7bc 42f1 1dbd f5eb 08bd 8b1c 25bc
00000020: a7dc 41bd 1ca7 ab3d 267e da3b cf6d 91bd
00000030: b571 ae3d ec66 aabd 10bf ac3d bbc5 b33d
00000040: f3f9 abbd 7525 8f3d 32b0 28bd c93e 0d3d
00000050: 6332 f9bc 86bf 033d 3702 98bd ebf5 b8bd
00000060: e07b 6abd 9a5d 113d bc0a ab3d 4f7e 363a
00000070: ebe8 583d 4495 fa3c 49b5 463d 1590 233c
00000080: d75e d3bc c87a c13c c968 863d 23f6 d6ba
00000090: 27c4 813d a1ab 17bc e9fc 87bc 7e96 333d
000000a0: 4971 a03d 0efd 05bd 3358 1a3d 3422 83bb
000000b0: 4e27 ecbb 807a 9bbc c95a 2ebd 1d55 2ebd
000000c0: da75 aa3d 8a61 aebd 7af0 903d c6cd 893d
000000d0: ee1d 463d 0b7c 2dbd 9b17 9c3d 29a5 aebd
000000e0: b229 bcbc cb6c b63d bab8 853d 0821 7fba
000000f0: 991a 9cbd 9d36 8e3c 2d5e eb3c 5c57 b83d
00000100: a244 82bd 323e 093d e8ad 4dbd 1e0d 3d3d
00000110: 67d3 7e3d 3cb2 5cbd a034 853c 89d3 a7bd
00000120: b9c9 60bd a924 913d 86e7 a73d c345 b83d
00000130: 9a3e a63c a0d0 813c f773 b03d 0785 a43c
00000140: 734a 323c 9846 8bbc 11f1 643d 8711 b2bd
00000150: 0b5d dc3b 3f68 87bd 7fe3 a2bd dd2a 9ebd
00000160: 7be5 053d 34e2 0fbd b61c 87bc 6d16 2bbd
00000170: da96 8c3d e03e a33d 587a b53c 4c1b 3c3d
00000180: be9c f6bc 96eb 3bbd 8b38 903d 93e6 093d
00000190: 69c0 48bc 10d3 a7bd b088 1c3d 30e8 523d
000001a0: 43d7 d13c dcf8 af39 6992 a93d a61e 583d
000001b0: 577c 92bd 7063 3b3d dc1a 96bc cd29 babd
000001c0: 8bfe d33c e450 923c 869c ba3d 4d25 50bd
000001d0: 0c46 83bd d1b4 aabd af76 7abd 0051 783c
000001e0: 2d95 70bd 87b2 e63b be70 65bc d7a0 99ba
000001f0: 3349 233c f1a8 ebbc 41d2 28bd ede5 b1bd
00000200: 036a 863d 146f a33d e5ac 88bd b191 05bc
00000210: bb7c e4bb 389f 313d bc4c b23d 457c 383d
00000220: 7a32 c93b 9fe2 24bd b2f4 183d eb93 a5bd
00000230: 9406 92bd 5ac1 43bd 5bba 94bd 158f 8ebd
00000240: 7e6f 9dbd c49d 0c3d 0eb9 a93d 7e68 b03d
00000250: 581e 873d bc88 b83d 7cdc d9bc 0065 b83c
00000260: 136c 7cbc 242b 50bd 3bfa 993c 3749 353d
00000270: 03ab 6ebc 35bf a1bd f992 b73d 57cc 2bbd
00000280: 0f7b afbd 90ab 64bc 2c77 a7bc 983d 933d
00000290: df75 91bc 85f7 bdbc f0be 843d 0e7a 783d
000002a0: 34bf 85bd 9fcb ba3d 331f 47bd a07e 693d
000002b0: 91e5 31bd ca89 6b3c ff55 433d 7308 273d
000002c0: db63 4cbd 8735 293d 0711 bc3c 9aa0 193d
000002d0: 3e5f 853d 7552 d9bc 57fb 8cbd e43d 11bd
000002e0: 41fb 863c 0774 81bd 731b 0fbd f00c 853d
000002f0: 3731 f039 f227 8c3d ffa4 b33d c192 903c
00000300: 4652 413d 2209 abbc 9826 1ebd 3d98 03bc
00000310: d58c 80bc 27fc 153d 11a5 a9bc 5ed1 583d
00000320: ba48 09bd 5138 493b 94c2 64bd 6a3b 883d
00000330: 612d 4abd 2b8d 773d 608c 413c 5f25 c0bc
00000340: 12cc 0bbd abcc d93c 3560 01bc dd43 2039
00000350: 7356 52bd 54c3 b5bc 2dd1 2bbd 945a 24bd
00000360: da92 f73a 9a02 3abd 11a2 973d 343e 6bbc
00000370: fcc5 b63d a18f b93d 348b 023d 2966 abbd
00000380: 84cb 8b3d 3609 b0bd 0d16 79bd 3d67 5a3b
00000390: 175a 3b3d 8f31 b6bd 61f0 b8bd 9100 f23c
000003a0: d6ff db3b aedb cd3b 00aa cdbc 009d 623d
000003b0: c07e 5ebd bcfe 6f3d 6ff2 f4bc 06b4 67bd
000003c0: 95ae b6bd 389c a0bd b652 e5bb fb54 d33c
000003d0: 4a1c b9bd ea41 773d ce69 543c b959 9ebd
000003e0: f651 ddba d4b6 5a3d d60f 1c3d 5cf1 aebc
000003f0: eff1 47bd 0a4e b53d 7f8e 35bd 57b4 083d
-0.07708859 -0.064368844 0.033737697 -0.040655736 -0.028213795 -0.03856016 -0.03342815 -0.010077606
-0.04732957 0.08381483 0.00666787 -0.071010225 0.08517782 -0.08320412 0.0843488 0.087779485
-0.083972834 0.06989566 -0.041183658 0.034483705 -0.030419534 0.032165073 -0.074222974 -0.0903128
-0.057247043 0.035489656 0.08351657 0.00069615705 0.052956503 0.030588754 0.04851273 0.009983082
-0.02580206 0.023618117 0.06562955 -0.0016400259 0.06336241 -0.009257228 -0.01660009 0.043844692
0.078341074 -0.032712035 0.03768177 -0.00400188 -0.007206834 -0.018979311 -0.04256705 -0.04256164
0.0832326 -0.08514698 0.07077117 0.06728701 0.048368387 -0.042354625 0.0762169 -0.085275955
-0.0229691 0.08907469 0.065293744 -0.00097324 -0.076222606 0.017360026 0.02873143 0.090010375
-0.06360747 0.03350658 -0.050214678 0.046155088 0.062213328 -0.053880915 0.016260445 -0.08194644
-0.054879878 0.070870705 0.081984565 0.08997681 0.020293523 0.01584655 0.086158685 0.020082964
0.010882008 -0.017001435 0.05589396 -0.08694749 0.006724959 -0.0661168 -0.07953548 -0.07723019
0.032689553 -0.035127833 -0.016493183 -0.041769434 0.0686471 0.07970977 0.022153065 0.04592447
-0.030104037 -0.04587897 0.07042035 0.03366716 -0.012252905 -0.08194554 0.038216293 0.051490963
0.02561534 0.00033564016 0.08279879 0.052763604 -0.07152622 0.045749128 -0.018323354 -0.09090004
0.025878211 0.017860837 0.09111886 -0.050816823 -0.06409845 -0.08335269 -0.06114834 0.015156031
-0.058736015 0.007040325 -0.014003931 -0.0011720908 0.0099661825 -0.028767081 -0.04121614 -0.08686433
0.06563189 0.07980171 -0.06673602 -0.008152411 -0.006972877 0.043364733 0.08706042 0.045040388
0.0061400505 -0.040255185 0.037342735 -0.08084854 -0.07130161 -0.047791816 -0.07262107 -0.069608845
-0.07687281 0.034330145 0.082872495 0.0861368 0.065975845 0.09010455 -0.026594393 0.022509098
-0.015406626 -0.050822392 0.018796077 0.044259276 -0.01456714 -0.07897798 0.0896358 -0.04194292
-0.085683934 -0.013956919 -0.020442568 0.071894825 -0.0177564 -0.023189316 0.06481731 0.060663275
-0.0653061 0.09120869 -0.04861374 0.057005525 -0.043431822 0.014376113 0.047689434 0.040779542
-0.049899917 0.041310813 0.022957338 0.037506677 0.06512307 -0.026528576 -0.06883877 -0.035459414
0.01647723 -0.063209586 -0.034938287 0.06496608 0.00045813035 0.068435565 0.08771705 0.017648103
0.047197603 -0.020878378 -0.038611025 -0.008031902 -0.015692154 0.036617424 -0.020708593 0.052934043
-0.033516623 0.0030703733 -0.055849627 0.06651957 -0.049359683 0.060437363 0.011813253 -0.02345532
-0.034130163 0.026586851 -0.007896473 0.0001528407 -0.051351976 -0.022187866 -0.041947532 -0.040125445
0.001888837 -0.045412637 0.074039586 -0.014358092 0.08924481 0.09060598 0.031871036 -0.08369095
0.06825927 -0.08595507 -0.060812045 0.0033325695 0.045740213 -0.08896171 -0.09030224 0.029541286
0.0067138476 0.0062822914 -0.025105476 0.055325508 -0.054320097 0.058592543 -0.029900758 -0.056568168
-0.08920018 -0.07842296 -0.0069983853 0.025797358 -0.09038599 0.060365595 0.012964679 -0.07731957
-0.0016885388 0.053397015 0.03810104 -0.021355323 -0.04881471 0.088527754 -0.044325348 0.03337511

onnx::Conv_106 f4 [16, 16, 3, 3]
00000000: 3207 d3bd d025 05bd 4489 053e 7a2b 063d
00000010: fe8a e5ba d288 ff3d 0d61 da3d d1b7 f83c
00000020: 547a 9b3a d734 49bd 765b f4bd bb9d f0bd
00000030: da9b 75bd 0f75 7bbd e306 0fbe 1069 f2bd
00000040: ad36 913c 4c05 6a3d fc74 9d3d 7219 c63d
00000050: 0477 c13d 64d9 87bd 35b6 13be 9a06 e13d
00000060: 2e14 da3d 9baf 01be 3fa9 133e fa4d 023e
00000070: 4510 233d 7cfa c5bd b077 8a3b c0dc 903a
00000080: 3143 c9bd 126f 59bc 7a8e 7b3a aa87 94bc
00000090: b0a6 203c 5aec 9d3c f148 433c 2056 eabd
000000a0: 88f8 c7bd 9613 8fbd 0120 063c 5162 a73d
000000b0: 1ddc adbd 872d 82bd 7cd2 d43d da6b 65bd
000000c0: 1df6 3dbc b60b eabd fdba 03be 6bac e5bd
000000d0: 25f0 13bd 858d c23d 092c 283d 129d 49bd
000000e0: 6754 9ebd 7afa dc3c 8c41 5b3d 5a26 9bbd
000000f0: 5a63 0d3d 81a1 c0bd 6c43 7fbc 9f55 e73c
00000100: c803 98bd 188d eb3d 2c5e 6d3c 87fc b0bd
00000110: 768d ed3d eb66 b2bd bfc6 09bd c4dd fb3d
00000120: 3a98 15bd 2ca5 0f3e e0e1 b53c 6062 0e3e
00000130: 4e6a 7cbc 6765 59bb 6738 d7bb aed1 8b3d
00000140: c609 b73d e1a0 7e3d 23d1 c8bc fa16 84bd
00000150: 27ef d8bd 419e e03d d439 79bd 542f 583d
00000160: ab5e 0d3e 04f9 9dbb 131d 90ba 4f53 e1bd
00000170: 5c71 bfbd 1dde 103e ed7f c4bd eb5a f93c
00000180: 09be e8bc 32ce ac3c de36 f9bc 9c61 57bd
00000190: 19af f0bd 5f4b 07be 683b 4dbc 862c 23bb
000001a0: aef9 e83c d6f3 043e 5f59 05be d49c febd
000001b0: 424c 67bd 79b4 e5bd 36b9 0a3c 6dbe bdbd
000001c0: 31fb 713d 24c6 5b3c 3183 533d 93bd b53d
000001d0: 72b8 873d 9238 30bd 4fb2 203c 7362 aa3c
000001e0: e431 b33d a043 593b 3fff 133d 0a7a 023e
000001f0: ae09 c03d 609d dabd cec1 10be 5a83 173a
00000200: bcf7 c33b 7021 f7bd 79a5 0fbe 7979 863d
00000210: a06c 0ebe 7bae aabc a0ce f73d 256b 9f3d
00000220: dec2 843d f1d9 cabd 69f7 0d3e 9291 913d
00000230: 93c4 993d 2899 633d d05f b13d 3aff 11be
00000240: c028 4dbd 5a2c 3a3d 2fc1 e23d 921b bb3d
00000250: 964f dcbd 36e5 c6bd 27be d2bc 6b78 99bd
00000260: fb93 b03d 7601 8e3d 4f41 a3bc 14c3 8d3c
00000270: 7489 133d 265c b4bd 8bfb 1dbd c21c e2bd
00000280: 9e15 0cbe 2e16 33bd 27ab fa3d 2669 063e
00000290: 5879 4c3d b316 9bbc bd6a 08be 4b5e e03d
000002a0: 02bb 053e 0ba8 ddbd daa9 1f3d 29e1 6a3d
000002b0: 3535 8bbd 901a acbd 14a1 c13d 88cb f33d
000002c0: 9b2a adbc 4f4c ef3b 9930 de3d 5bab 4fbd
000002d0: 6050 e0bd df6f 9e3d f2b0 853d 7656 e7bd
000002e0: 1212 febd e99f 78bd 5e23 a73d 4967 11be
000002f0: be6f cebc d7c1 c83d a44a 9dbd 35df d1bd
00000300: df17 8bbd 905d a7bc 0a0d 853d 4567 a3bd
00000310: d7b2 013e dba9 d2bd 0b54 ae3d 6549 0d3e
00000320: 11da 8a3d 6690 9d3d a3b9 7d3d 92ca 2a3d
00000330: eb7b f4bc 4cd3 523d 3c38 03bc dc50 c63c
00000340: 3c47 07be 51f6 b3bd 5088 33bb a675 64bd
00000350: 33b1 cfbd 02da 563c 9765 aa3d d841 12bc
00000360: 18d9 ad3d 1f77 70bd 0a6c 3abd 1e32 4a3d
00000370: 8d79 c03d 9eb2 7cbd 2a47 d93c a5cd d33d
00000380: ad7d 0fbe c933 fabd 8b66 903b fca3 e9bd
00000390: 8eb3 433d 1317 09be 41b4 ebbd d9b6 f8bd
000003a0: 2fe1 be3d 80c6 b03d 2c72 cfbd a0f0 f0bd
000003b0: 0b57 6cbd 2ae2 943c 56b6 873d fe40 373d
000003c0: 23de 393d 20c3 3ebd 349a 85bb 7af5 f5bd
000003d0: 206e c9bd 855b 2e3c 0296 f0bc d1cc 183d
000003e0: ff2a a63d 8cd9 a73c 1abc eabd 2d40 9e3d
000003f0: 0461 7a3d b922 0d3e 5c3d b2bd 3adf 03be
-0.10304107 -0.032506764 0.13040644 0.032756306 -0.0017512736 0.12477268 0.10663042 0.030361088
0.0011862018 -0.049122658 -0.11931507 -0.11748835 -0.059963085 -0.061390933 -0.13967471 -0.11836445
0.017726267 0.057133958 0.076883286 0.09672822 0.094465286 -0.06633261 -0.14424975 0.10987587
0.1064838 -0.12664644 0.14420031 0.12725058 0.039810438 -0.09666917 0.0042256936 0.0011052117
-0.09827269 -0.01327111 0.0009596121 -0.018131096 0.009805366 0.01927774 0.011919246 -0.11442208
-0.097642004 -0.069861576 0.008186341 0.08173049 -0.08489249 -0.0635634 0.10391709 -0.05601106
-0.0115943225 -0.11428015 -0.12864299 -0.11214527 -0.03611769 0.09499649 0.04105762 -0.04922206
-0.07730942 0.026974905 0.053529307 -0.07575674 0.034518577 -0.094058044 -0.0155800395 0.02823907
-0.07422596 0.11501521 0.014487784 -0.08641916 0.11599247 -0.08711036 -0.033636805 0.12298158
-0.036522128 0.14027852 0.022202432 0.13904715 -0.015406204 -0.0033172013 -0.006568003 0.068271026
0.08937411 0.062165145 -0.024513787 -0.06449695 -0.1059249 0.109676845 -0.060846165 0.05277951
0.13805644 -0.0048209447 -0.0010994993 -0.11002218 -0.093477935 0.1414723 -0.095947124 0.03043886
-0.028410928 0.021094415 -0.03042167 -0.052583322 -0.11752147 -0.13212346 -0.012526371 -0.0024898364
0.028439369 0.12983641 -0.13022374 -0.12432256 -0.05646921 -0.11216063 0.008467009 -0.092648365
0.059077445 0.01341394 0.051638786 0.08874049 0.06626977 -0.0430227 0.009808137 0.020798897
0.0874975 0.003315188 0.036132094 0.12741867 0.09376846 -0.10674548 -0.1413643 0.0005779766
0.00598046 -0.120669246 -0.14027967 0.06566138 -0.13908625 -0.020835152 0.120999575 0.07784108
0.064824805 -0.0990485 0.1386391 0.071078435 0.07508197 0.055565983 0.08660853 -0.14257517
-0.05008769 0.045452453 0.11072003 0.09136118 -0.10757367 -0.09711687 -0.025725437 -0.07493671
0.08621975 0.069338724 -0.019928603 0.017304935 0.036019757 -0.088066384 -0.03856997 -0.11040641
-0.13680121 -0.043722324 0.12239676 0.13126048 0.04992041 -0.018931722 -0.13321967 0.10955485
0.13059619 -0.10823067 0.038980342 0.057343636 -0.06797258 -0.08403504 0.09454551 0.11904055
-0.02113848 0.007302798 0.10849113 -0.050700527 -0.1095283 0.077361815 0.0652789 -0.11295788
-0.124057904 -0.060699377 0.08161043 -0.14199556 -0.025199767 0.09802597 -0.07680252 -0.102476515
-0.067916624 -0.020430356 0.06496628 -0.079786815 0.12665878 -0.102863036 0.08512124 0.13797529
0.06779874 0.076935574 0.061944615 0.041697092 -0.029844245 0.05147104 -0.008009013 0.024208479
-0.13210768 -0.087872155 -0.002739448 -0.05577626 -0.1014122 0.013113501 0.08320158 -0.008926831
0.08488673 -0.058707353 -0.04551319 0.0493642 0.09398184 -0.06169378 0.026523191 0.10341958
-0.14012785 -0.122169085 0.0044067553 -0.11408231 0.04777866 -0.13387708 -0.1150899 -0.121442504
0.09320294 0.08631611 -0.101291984 -0.117646456 -0.0577002 0.01817425 0.06626575 0.044739716
0.04537786 -0.046572804 -0.0040772203 -0.120097116 -0.09835458 0.010641937 -0.029368404 0.037304703
0.081136696 0.020489477 -0.11461659 0.07727084 0.061127678 0.13782777 -0.087031096 -0.12878123

onnx::Conv_109 f4 [8, 16, 3, 3]
00000000: b5f5 133e a306 acbd a685 babd 13fb ab3c
00000010: 87e8 f73d b7da 8ebd bc0a e8bd 41fa b83d
00000020: d6f0 13be c217 3cbc 1c48 253e 09bf f0bd
00000030: ac72 23be dafb 673d c43c 9f3d 0e1e 0bbe
00000040: 3a8b b63c b3ea e93d 54f7 58bd c30d f43d
00000050: 294d 173e d330 89bd 47e7 cfbd de7a 5abd
00000060: a821 0c3c 7e5e fb3d 6b58 213e ceec c8bd
00000070: ecd5 0fbe 2f0a 95bc b4ec 473d 9b5e aabd
00000080: e3b2 db3c f719 0e3e c8d9 e43d 52b8 213e
00000090: a10b ca3d 7763 50bd eb61 bbbd ae26 fbbc
000000a0: fd42 23be 09a5 7a3d 2f62 22be f02f d43d
000000b0: 7da6 083e fd3c 3c3d 7df4 8c3d b9ad 013e
000000c0: e4e8 68bd a118 b03d b3b4 11be 8a43 66bc
000000d0: b523 c7bc 676c 273e b79a 5e3c 43bf b9bb
000000e0: fe45 243e 2f58 08be fafd 123e 328d 06be
000000f0: 5f69 aebd df33 573d 9d2d 283e 8d1b ddbd
00000100: b028 ac3d a9a6 b13d 4aa6 fe3d 411a c0bb
00000110: 906e 133d b699 f23d fd94 2c3d c6a1 05be
00000120: e213 4e3d 8f56 38bd 144f 81bd 18e7 bdbb
00000130: 1c47 2fbc fe9e 29be c979 8abc 1ae4 d4bc
00000140: f026 d4bd eed5 3a3c 653d 95bd cd1a 8cbd
00000150: 96ea 1ebe d249 2abe b744 2ebd 9982 f9bc
00000160: 7096 d53c 17e6 a63d 5623 97bd 12d3 10be
00000170: 03c5 f2bd 3ff3 043e 8ba2 033d 55db bb3d
00000180: 6d84 9bbc f31d 1a3d 144d a83c 856e 043d
00000190: 2c35 bf3c a4c2 80bd a263 233e e9f3 8dbd
000001a0: 99d3 bf3d c057 c4b9 00e1 e33c 8245 9fbc
000001b0: 4df2 0a3d 0bb7 e33c 1365 93bd ea0b 193e
000001c0: acd6 193e 7ddc 82bd 6288 213e ecbc 0d3d
000001d0: fb55 e33d 653a 5639 9ebf a13d 8fa4 763d
000001e0: 2327 fc3c 8a11 d5bd 8bbc 873d 1061 023d
000001f0: be21 f33d a5f1 94bb 594a d73c e1e2 be3c
00000200: 3894 fcbc 0b1a 09be bfec 1cbe 9810 fc3c
00000210: aa79 76bd fc1b a9bd 8250 213e 8603 ac3d
00000220: 38f1 923d 211d 203d 6e8f 98bd df45 1b3e
00000230: dee8 2a3c fd41 e5bd 87b3 e7bd 9a7f 95bc
00000240: 6ef7 09be f1e3 e1bd e79a 703d 0177 983d
00000250: 05fc f53c 5aa0 f7bd 8c1d 00be 8b94 cd3d
00000260: 9d3b 8b3d ab0a 133d 0bb1 1c3e f238 3e3d
00000270: 3008 283e 9c10 b03c 7bfa babd a5b8 debd
00000280: db0a 12be 0a8d 12be dbbf 82bd cbe0 82bc
00000290: e87c 283e e3df fcbc db51 f33b e097 733d
000002a0: 5632 a2bd 7cb9 4dbd 209e da3d f661 22be
000002b0: d353 b53d fe68 98bd 6278 8dbd 8298 ffbb
000002c0: 9014 0ebe ed53 0bbd a1b8 3f3d 7e0e 05be
000002d0: 760d dabd cc6b 623c 597e 03be 38ab 113e
000002e0: 60c0 343d c407 1ebe 75ec a5bd 72dc 953d
000002f0: e874 233e ee1f f9bc c2fb 0cbd 0695 123d
00000300: 09f9 963d 9df9 16be 8080 ec3d 006a d43d
00000310: 750c 28be 7e6a 0a3b f71d 07be 4a68 0bbe
00000320: 0480 123e 0f39 953c 6390 c1bd 799f 25be
00000330: c513 b53b f35b e53d c667 0c3e 29cd b9bd
00000340: 2901 88ba f5d7 debd a0c1 0cbe 686f 4dbd
00000350: 37ab 9f3c 723b 05be 002c 8d3d 9d46 9a3d
00000360: ef83 273d 40ed e33d 8243 5fbd 7465 1b3e
00000370: 586d ab3d 549c b13d c035 933d f9a9 eb3d
00000380: e1ff babd 7285 6ebd d346 cbbc 545c e63d
00000390: 5acc 8abd 614c 2fbd 1c9c b13c 957b fd3d
000003a0: 830e 9a3d 3ed6 09be 57f8 1ebe 536d abbd
000003b0: 35d7 18be b353 06be 0e79 883d 1c92 90bc
000003c0: 0e6d 093d 01fa 6f3d c117 19be 6815 04be
000003d0: 3185 30bc d67a 16be 0d5d fdbd 94a0 05bc
000003e0: 5bd4 a0bd 8b82 133e d564 edbd cafd 9c3d
000003f0: 2cba 133e 29fa a0bd 4633 61bd f168 0b3e
0.14449199 -0.08399703 -0.09107523 0.020993745 0.12104898 -0.0697531 -0.113301724 0.09032107
-0.1444734 -0.011480274 0.16140789 -0.11755187 -0.15961713 0.05663667 0.07775262 -0.13585684
0.022283185 0.114217184 -0.052970245 0.11916687 0.14775528 -0.066987656 -0.101515345 -0.05333983
0.008552946 0.12273882 0.15756385 -0.09810792 -0.14046448 -0.018193332 0.048809722 -0.08318826
0.026818698 0.13877092 0.11174351 0.15792969 0.09865499 -0.050876107 -0.09149536 -0.030658092
-0.15943523 0.061192546 -0.15857767 0.10360706 0.1334476 0.0459566 0.0688257 0.12663926
-0.056862727 0.085984476 -0.14229088 -0.0140541885 -0.024309019 0.16349946 0.013586692 -0.005668552
0.16042325 -0.1331489 0.14354697 -0.13139799 -0.08516192 0.052539703 0.1642365 -0.107962705
0.08406198 0.08674366 0.12434061 -0.0058625047 0.035994112 0.11845724 0.042134274 -0.13049993
0.05031193 -0.045004424 -0.06313911 -0.005795371 -0.010698106 -0.16564557 -0.016903775 -0.025987674
-0.10358989 0.011403544 -0.07287101 -0.06841049 -0.15519175 -0.16629723 -0.042546 -0.030457782
0.02607271 0.08149355 -0.07379787 -0.14143017 -0.11853983 0.12983416 0.032137435 0.09172694
-0.018984044 0.037626218 0.020544566 0.032331962 0.023340784 -0.06287125 0.15955976 -0.06931288
0.09366531 -0.00037449412 0.02781725 -0.019442324 0.033922482 0.027797243 -0.07197013 0.14945951
0.15023297 -0.06389711 0.15774682 0.034603998 0.11100384 0.00020430384 0.07897876 0.06021553
0.03078038 -0.10403736 0.066277586 0.031830847 0.1187167 -0.004545408 0.026280569 0.023301544
-0.030832395 -0.13388841 -0.15324686 0.030769631 -0.06017462 -0.08257291 0.15753368 0.083991095
0.07174915 0.03909028 -0.07449232 0.15163372 0.010431496 -0.11194227 -0.11313539 -0.018249322
-0.13473293 -0.110298045 0.058741476 0.07444573 0.030027399 -0.120911315 -0.12511271 0.10038098
0.0679848 0.035898846 0.15301912 0.046441026 0.16409373 0.021492295 -0.091298066 -0.10875062
-0.14261954 -0.14311615 -0.0638425 -0.01597633 0.16453898 -0.030868476 0.0074255294 0.05947101
-0.07919757 -0.05022572 0.10674691 -0.15857682 0.08853879 -0.07441901 -0.06907727 -0.007800163
-0.13875031 -0.034015585 0.046806935 -0.1299381 -0.10647099 0.013819646 -0.12841167 0.14225471
0.044128776 -0.1543265 -0.08101741 0.07317437 0.15962565 -0.030410733 -0.034419782 0.03578665
0.073717184 -0.14743657 0.11547947 0.103717804 -0.16411002 0.0021120603 -0.13195024 -0.13614002
0.14306647 0.018215684 -0.09451368 -0.16174115 0.0055260384 0.111991785 0.13711461 -0.09072334
-0.0010376322 -0.10881034 -0.13745737 -0.050155073 0.019490821 -0.13010958 0.06893158 0.07533
0.040897306 0.11129236 -0.05450774 0.1517542 0.08370465 0.08672395 0.071879864 0.11507029
-0.09130836 -0.058232732 -0.024814045 0.11248079 -0.06777258 -0.04279745 0.021680884 0.12377087
0.07522299 -0.13460633 -0.15524422 -0.08370461 -0.14925845 -0.13117866 0.06663714 -0.017647795
0.03355127 0.05858803 -0.14950468 -0.12898791 -0.010773943 -0.14695296 -0.12371264 -0.008155961
-0.078530036 0.14405267 -0.11591498 0.07665594 0.14426488 -0.07860214 -0.05498054 0.1361425

onnx::Conv_110 f4 [8]
00000000: 0000 0000 0000 0000 0000 0000 0000 0000
00000010: 0000 0000 0000 0000 0000 0000 0000 0000
0.0 0.0 0.0 0.0 0.0 0.0 0.0 0.0

onnx::Conv_112 f4 [16, 8, 3, 3]
00000000: ed84 bb3b cedc c3bd 2349 28be 9374 3a3d
00000010: 8063 11be 1eea dabd 29c0 283e 25f9 253d
00000020: c5f5 333c f12b babd 24b5 583d 58a8 7bbd
00000030: c802 dbbd 788a 0b3d 50cd 253d a195 023e
00000040: a6b4 d23d 1415 0fbe 9b97 2abe ba7e f73c
00000050: f500 afbd 3cec b73d c7d3 2ebb d3f3 9a3d
00000060: e602 803d cb60 a13d 1973 90bd 7681 c4bc
00000070: 4448 0cbe 7e24 a03d 1bd3 113e 7310 143e
00000080: a8e8 c2bd 1aa0 de3d e5ba 65bd c72a d7bd
00000090: 27e6 ff3d db5e 52bd 37ad 9ebc 43a0 0a3d
000000a0: 8343 fc3b 16b9 d3bd e08c 19be 2310 113e
000000b0: 68a4 23be 8257 7f3d cc1d e03c c129 51bd
000000c0: 1e9d 7abd 7532 84bc 7e41 a0bd 1f5c 95bd
000000d0: 3b64 063e b0ec 243d ed42 09be 3e4a 91bd
000000e0: f5a7 f53d d4ac 053c bf3e 38bd 44e5 03be
000000f0: cd9d e53d d54f 8239 dcd2 f8bd e63a 23be
00000100: d238 143e 784e dabd 86bb d2bc 1d94 833d
00000110: 9179 fabd 9b55 a23d 3c8b 61bd e6f9 ebbd
00000120: 0add 673d d9ae d7bc a8f4 4abc 0212 b8bd
00000130: c197 d73d e0c7 65bd 2ad5 1e3e 0b7d f33d
00000140: 0f62 1abe 2f97 02be 0d6e 95bd 6ac8 15bd
00000150: 7f3c 11be bb28 ebbd f578 643d d0d2 c33d
00000160: 770e b63d 780b 1cbc 88d4 29be bb2d 923d
00000170: 7cf2 d63d 9b73 fd3d 6ed6 c83d 0a5f d63d
00000180: 4110 bfbd e1e4 503d 613e 0f3e eeee a1bd
00000190: b71b c6bd 241c 993d c0c7 43ba e036 c3bd
000001a0: a088 d4bd 82d2 96bd a007 013e cfd3 1d3e
000001b0: 0e32 16be 98d7 7cbc 8b0f bb3d 52bf 11be
000001c0: 32d2 21be 2b37 92bd 5789 13be 8c1b 283e
000001d0: b1e7 d6bd 504b 1d3e d3a8 213e b0de 34bd
000001e0: 25fe 283e ca40 8c3d 0721 0e3e 869b f93d
000001f0: 9f8a cebd b6ad a9bd ac05 e03c 09af c0bd
00000200: 12f9 ce3c e0d5 72bd 9065 723d 4768 a63d
00000210: e111 0e3e 1c30 31bb 548b 36bd ef0c b83c
00000220: 7718 963d ef05 163e 5f9c 68bb 5394 c23d
00000230: 11e8 0dbd ce6b 913d b148 01bd 36e7 253e
00000240: ea66 0a3e 24da 483d 32e0 173e 3c8d 263e
00000250: 1e63 993d e64b 22bd 87e9 3ebd 1bb0 32bc
00000260: 79aa 1739 e0c1 dbbd ef4a 143e 6e04 0a3d
00000270: caad 11be d3de 5a3d 0883 6c3d 485a 3dbd
00000280: 290d 0aba 0bb4 113e 46aa f2bd 7910 4a3d
00000290: 3123 f03c 00e5 33bd 575d de3c 830e e3bd
000002a0: 56d0 31bd 0c5d b7bd 0113 22bd 75db d4bd
000002b0: 2132 173e 13ab 4b3b e91d 98bd 2362 88bd
000002c0: ebc5 a23d acf8 a73d bea9 4a3d 5d69 cd3c
000002d0: e601 a13d f25d 6d3d 1a09 783c 1d60 cd3d
000002e0: da11 67bd eea5 073d f38d cc3d 7aff 29be
000002f0: 73e4 12be ca3e ecbd ab69 1f3e 89ef b83d
00000300: 5cc6 b0bd e429 873d 0831 6f3b 6142 103d
00000310: 6f91 f53c fd42 14be b85c 043e 9e79 f2bd
00000320: 61f9 50bd 796d 17bc e61a cabd ec58 873d
00000330: 8761 cfbd 6129 f1bd e535 24be 21ad a6bd
00000340: 0faa 583b b2b4 0b3d f027 aa3d 18f5 19be
00000350: 4cc2 8d3d a6aa 13bc cabe 243c d116 53bd
00000360: 5a73 45bd 988c 0dbe ac89 0b3e 9431 013e
00000370: f4a3 d83d 9a5e a3bd 57dd 263e 943c 2a3e
00000380: 623c ce3d d2ae 1fbe 6779 3fbd eaf5 adbd
00000390: bf61 573d 73b8 b23d 6d82 ae3d cc5c 3fbd
000003a0: 7612 213c d9ea d03d ea31 edbd dbd2 51bd
000003b0: 385c 8d3d 3f48 f63d 8d9b bcbc 057b 9cbd
000003c0: 3643 c8bd b935 79bd dccd ef3c 6cd2 803d
000003d0: 6b4b f2bd fda3 8cbd 241e 123e 9a20 ffbd
000003e0: 618f afbd ac6d 1d3e c494 373b f2fb 09be
000003f0: 5072 11bd daff 943d 5a6f 243d 2d54 fc3c
0.005722633 -0.095635995 -0.1643415 0.04552133 -0.14198112 -0.106891856 0.16479553 0.040520806
0.010983889 -0.090904124 0.052907124 -0.061439842 -0.1069389 0.0340676 0.040479004 0.12752391
0.10288362 -0.13972884 -0.16659395 0.030211795 -0.085451044 0.08980605 -0.0026676522 0.07566037
0.06250553 0.0787979 -0.07053203 -0.023987513 -0.13699442 0.0781946 0.14240687 0.144594
-0.09517032 0.10870381 -0.05608644 -0.10506206 0.1249507 -0.051359992 -0.019369705 0.033844244
0.0076984777 -0.10338037 -0.14995146 0.14166312 -0.15980685 0.062339313 0.027357958 -0.05106521
-0.061184995 -0.016137341 -0.07824992 -0.07292961 0.13124172 0.040264785 -0.13404436 -0.07094239
0.11994926 0.008158881 -0.044981714 -0.12880427 0.11211739 0.00024855012 -0.12149593 -0.15940437
0.144748 -0.10659498 -0.025724184 0.06424735 -0.12230218 0.07926484 -0.055064425 -0.11522274
0.056607284 -0.026328491 -0.012387432 -0.0898781 0.10526992 -0.05609882 0.15511003 0.118890844
-0.15076469 -0.12752984 -0.07296381 -0.036568083 -0.14183234 -0.11482378 0.055779416 0.09561694
0.08889478 -0.009524219 -0.1658498 0.07137629 0.10495469 0.123755656 0.09806524 0.10467346
-0.09329272 0.050999526 0.1398864 -0.079069 -0.09673255 0.074760705 -0.0007468425 -0.09531951
-0.10377622 -0.0736437 0.12600565 0.1541283 -0.14667532 -0.015432261 0.09133824 -0.14233139
-0.1580284 -0.07139429 -0.1440786 0.16416758 -0.104934104 0.1536076 0.15787058 -0.044157684
0.16503198 0.06848295 0.13879786 0.12187867 -0.100850336 -0.08285086 0.027346455 -0.09408385
0.02526525 -0.059286 0.05917889 0.08125358 0.13874008 -0.0027036732 -0.044566467 0.022467105
0.07328885 0.14650701 -0.0035493595 0.09500947 -0.034645144 0.0710064 -0.031563465 0.16201481
0.13515821 0.04903616 0.14831617 0.16264814 0.07489608 -0.039623164 -0.046609428 -0.010906245
0.00014463988 -0.10730338 0.1448171 0.03369563 -0.14226452 0.053435158 0.05774215 -0.046228677
-0.0005266243 0.14228837 -0.11848883 0.049332116 0.029313656 -0.043919563 0.027144117 -0.11086752
-0.043411575 -0.08953294 -0.039568905 -0.103934206 0.14765216 0.003107731 -0.0742758 -0.06659343
0.07947906 0.08201727 0.049478285 0.025074655 0.0786169 0.05795092 0.015138889 0.10028098
-0.05641351 0.033117227 0.09988012 -0.16601363 -0.14344959 -0.115354136 0.15567653 0.09030063
-0.08631584 0.06599787 0.003649773 0.035219554 0.029976575 -0.14478679 0.12925994 -0.11839603
-0.051019076 -0.009242409 -0.09868412 0.066087574 -0.10126024 -0.117754705 -0.16036184 -0.081384905
0.0033060347 0.03410787 0.08308399 -0.15034902 0.06921825 -0.009012854 0.010055253 -0.05153543
-0.04820571 -0.13823164 0.13626736 0.12616569 0.105781466 -0.07977028 0.16295372 0.16624671
0.10070111 -0.15594032 -0.046746638 -0.0849417 0.052583452 0.08726587 0.085209705 -0.046719357
0.009831062 0.10201044 -0.11581786 -0.051226478 0.06902355 0.120254986 -0.023023391 -0.076406516
-0.097784445 -0.06084225 0.029272966 0.06290135 -0.11830791 -0.06867216 0.1426931 -0.1245739
-0.08572269 0.15373868 0.0028012255 -0.13475016 -0.035509408 0.07275362 0.040145256 0.030801857

onnx::MatMul_114 f4 [144, 128]
00000000: 5619 9abd c786 2f3c 79b1 c6bd c595 473c
00000010: 3077 11be 7c0a 8abd 67fc 8f3d cc44 12be
00000020: e94e 00be ffaa dabc 63b3 e23d 6534 66bd
00000030: 6fe1 ebbd cb05 cdbc 08a9 03be 104b 713d
00000040: cc66 0939 fe26 07bd 1c1e 9abd 32c4 e3bd
00000050: 7542 033e fe60 f0bd 8273 8abd f4f5 2ebd
00000060: a5e0 f83d 2785 b7bc 59de 743d 3f4a 083d
00000070: bcf9 3fbd f939 5abd cdf2 d1bd d7e5 9dbd
00000080: 5677 eb3d aad1 cb3d 7c4d 6a3c ab18 003e
00000090: 1998 a5bd 14e4 02bb 5ad3 0ebe 23c3 593d
000000a0: 1f84 3abd 433f e53c 9d72 f5bd 670f 9dbd
000000b0: b2de f3bd e637 033e afb6 153e b6d5 f3bd
000000c0: 615b edbb 52ce fbbc 0ee7 4abd ddaf e438
000000d0: ad98 853d ceae b73d ad9d d5bd 5fc0 81bd
000000e0: 6598 15be 6959 da3d f2f2 a83d 8639 6abd
000000f0: 6ebc 0abe 4542 02be 0bf1 35bd 7697 e6bc
00000100: 9e57 b13d 1e85 d63d fe5f e0bd 96b8 ad3d
00000110: f6c0 cf3d e7aa bbbd 0e30 a9bd 6589 6fbd
00000120: b44e c13d 0926 d4bd 0802 c03d f993 c13c
00000130: 0ced b9bd 2d6b b1bd 8465 d7bb c3cc acbc
00000140: bade 683d 2525 f6bd a9aa 263d 045a f93d
00000150: cb34 253d 2c1f 583b ba1b c0bd eed9 babd
00000160: 127c 003e 53c4 6e3d 2ad9 e0bc fb68 643d
00000170: 4809 33bd a7b5 d03c 2661 e63d ce75 4b3d
00000180: cee6 a3bd 9496 08be e756 99bd ac5c 9abd
00000190: fdee 0a3d 12bc 923b f0ae a9bd 27ac 0b3e
000001a0: 8411 9b3c f21b 16be d342 a9bd 27ff 013d
000001b0: 4f23 99bb 9f5a c1bd bc06 ba3a 5624 d7bd
000001c0: b57e cdbd d9ba c6bc 9df9 713b 3017 ffbd
000001d0: 4ff4 c0bc 68d8 b03c 8a1a e5bc 0b75 91bd
000001e0: 43f2 423d 74f7 e1bd 5696 fb3d aa11 b8bd
000001f0: 63ba 123e af48 b0bd 40c1 12bd 9b26 96bc
00000200: 188c dabd 4bce 8a3c 7490 2e3d b1c2 7d3b
00000210: bcda 1ebd c93f 1abd 353f 903b 8c31 3f3c
00000220: 449c f93d 4a4e 86bd a42b 14be 678f 663d
00000230: ee35 913d 5851 20bd f480 ed3c 5edd 2f3c
00000240: 8f93 f2bd 85f0 943d c489 4a3d bdbd 133e
00000250: 30dd 933d 1185 c53c 20a8 9c3d 5323 f43d
00000260: 3374 c3bd 6971 95bc a9ec c33d e24f d13d
00000270: 1952 0f3e 51be c73d 7803 cebb 731e 523d
00000280: 43ef 143e 48cc 26bd 7a3b f13d ff26 753c
00000290: 601b 7a3d 224c cebc 9c59 dcbd 45c2 a0bd
000002a0: 8947 12bd 011b d23d f6de e53d 396f 333b
000002b0: 7181 88bd 0bc4 c73d 57dd 02bd 31c2 b1bd
000002c0: c621 ec3d 47c2 dabd 078a 733d d7ea d03d
000002d0: c0c0 37bd 7475 c3bd 4c89 943d 06f2 6bbd
000002e0: 0ca6 9e3d ca7d 113b 1d68 c33d 58e8 d33c
000002f0: 8251 c9bd 747c a0bc 4544 3cbd 3f24 dbbd
00000300: d05e 08be 7941 b53c 4fc7 7a3d 107d b9bd
00000310: 5d80 f13d 4bdc 04bd 7343 02be 4327 4eba
00000320: bce2 97bd e6ef b9bd bd62 553b 02eb 6fbd
00000330: 1e4f e53d 02ba 9dbc 1fcf fa3d 6926 d6bd
00000340: 6663 c83d e7a2 efbd aba6 503d 3285 c63d
00000350: 1688 883d 70d5 bfbd 4428 093d 2bf0 6bbc
00000360: 3778 ccbc f616 44bd 4d94 083d f918 cf3d
00000370: 7aee 313c f6e3 9ebd 9972 0d3e 1e7e d23d
00000380: b466 f2bc b7b3 473d a005 fabd 9983 99bd
00000390: 5801 ac3d 6579 d4bd 4cbe c2bd 452b 95bd
000003a0: 5e1c 583d 3a58 17bc 81fa fcbd d3f1 83bd
000003b0: c7e7 9e3d 9a75 d23d 029d 88bd a6ea ec3c
000003c0: 40ec d63d a3da 8b3c 91cc fb3d a2b3 eb3d
000003d0: 43ed 5e3d 51ef 07be 645a 823d 994a 023e
000003e0: 6901 813d 664f aa3d ebc1 ecbd b8f4 ecbd
000003f0: 0bbd df3d 9cf6 c63d 63cf 34bd 2d5f b8bd
-0.07524364 0.010713286 -0.09701819 0.012181704 -0.14205623 -0.06740281 0.07030564 -0.14284056
-0.12530102 -0.026692865 0.110693716 -0.05620231 -0.115176074 -0.025027176 -0.12857449 0.058909476
0.00013103633 -0.03299617 -0.07525274 -0.11121406 0.1281832 -0.1173725 -0.067603126 -0.042715028
0.121522225 -0.02240236 0.05978236 0.03327393 -0.046869025 -0.053277943 -0.10251389 -0.07709854
0.11497371 0.099520996 0.0143007 0.1250941 -0.08085651 -0.001997237 -0.13947812 0.053164613
-0.045536157 0.027984267 -0.119847514 -0.076689534 -0.1190771 0.12814292 0.1462047 -0.119059965
-0.007243559 -0.03073803 -0.049536757 0.00010904644 0.06523261 0.08968888 -0.10430465 -0.0633552
-0.14608915 0.10661585 0.08249463 -0.057183765 -0.13548443 -0.12720592 -0.04441933 -0.028148394
0.0865929 0.10474609 -0.10955809 0.084824726 0.10144226 -0.091634564 -0.08261119 -0.05848064
0.094388396 -0.10358817 0.093753874 0.02363013 -0.09078416 -0.0866302 -0.006573381 -0.021093732
0.056853034 -0.120188035 0.040690098 0.12175372 0.04033355 0.0032977564 -0.093802884 -0.09123598
0.12547329 0.058292698 -0.027447302 0.05576418 -0.043710023 0.025477244 0.11248998 0.049672894
-0.08003007 -0.13338691 -0.074872784 -0.07537207 0.033919323 0.004477986 -0.0828532 0.1363989
0.01892925 -0.14659098 -0.08264699 0.031737473 -0.0046733986 -0.09441113 0.0014192681 -0.105049774
-0.10033933 -0.024259018 0.0036922463 -0.124555945 -0.023553995 0.021587566 -0.027966756 -0.07102402
0.04759432 -0.11033526 0.12284534 -0.08987744 0.14328913 -0.08607613 -0.03582883 -0.018328955
-0.10671252 0.016944071 0.04261823 0.0038720781 -0.03878282 -0.037658487 0.004402066 0.011669528
0.121880084 -0.06557901 -0.14469773 0.056289103 0.070903644 -0.039140075 0.028992154 0.01073393
-0.11844551 0.07272438 0.04944779 0.14427848 0.072199225 0.024111303 0.07649255 0.119208
-0.095436476 -0.018242555 0.09566624 0.102203146 0.13996162 0.09753097 -0.0062870346 0.05129857
0.14544396 -0.04072216 0.117789224 0.014962911 0.061061263 -0.025182787 -0.10759279 -0.07849554
-0.035712752 0.10259057 0.11224167 0.0027379526 -0.06665314 0.09754189 -0.031949367 -0.08679617
0.11529879 -0.10681587 0.059457805 0.10201042 -0.044861555 -0.09543887 0.0725275 -0.05760386
0.07746515 0.002220022 0.095413424 0.025867626 -0.098299995 -0.019590594 -0.045963544 -0.10700273
-0.13317418 0.022125946 0.06122523 -0.09057057 0.117920615 -0.03243665 -0.12721042 -0.0007864127
-0.07416293 -0.0907896 0.0032560073 -0.05857373 0.11196731 -0.019253734 0.122465365 -0.10456545
0.09784584 -0.11700993 0.050940197 0.09693374 0.06666581 -0.09366882 0.033485666 -0.014400522
-0.024959667 -0.04787346 0.033344556 0.10112185 0.01086008 -0.07758324 0.13813247 0.10277961
-0.029589988 0.048755374 -0.12208104 -0.074958034 0.08398694 -0.10374717 -0.095089525 -0.07283644
0.052761428 -0.009237343 -0.12352467 -0.06442609 0.07759052 0.10276337 -0.06670572 0.028920483
0.1049428 0.017072028 0.12294877 0.115088716 0.05442549 -0.13274886 0.06364897 0.12723769
0.06299097 0.08315925 -0.115604244 -0.11570114 0.10924729 0.09715006 -0.044143092 -0.09002528
