output/experiment/models/model_tf/model_float16.tflite (tflite, 133028 bytes, 11 tensors)

arith.constant3 f2 [128, 144]
000000 d1 ac d4 ae 65 ac 91 1d bb 2c ad 1c ca 2e a0 ae
       -0.07526 -0.1067 -0.06866 0.005436 0.0739 0.004566 0.1061 -0.1035
000010 4a a4 ec 26 24 b0 18 2f 8d a8 9e 21 f1 aa 46 2a
       -0.01675 0.02704 -0.1294 0.11084 -0.03555 0.01097 -0.05423 0.049
000020 65 30 05 a4 6c ae d4 22 a4 aa 66 30 66 27 fb a6
       0.1373 -0.0157 -0.10034 0.013336 -0.05188 0.1375 0.0289 -0.02727
000030 14 30 30 2c dc ac 38 a8 83 ae 17 9d 39 28 1e 28
       0.1274 0.0654 -0.0759 -0.03296 -0.10175 -0.00497 0.033 0.03217
000040 7b 2e 67 b0 c8 2a 2c 29 8b 30 33 ac 2a 30 4c a1
       0.10126 -0.1376 0.05298 0.0404 0.142 -0.0656 0.1301 -0.010345
000050 10 ad d7 2e 46 2b 21 22 2c b0 43 2e 83 29 cc 2d
       -0.0791 0.1069 0.05682 0.01197 -0.1304 0.09784 0.04306 0.0906
000060 dd a7 35 a8 c2 2d be 27 2a b0 e3 ae 4e 30 04 28
       -0.03072 -0.03287 0.08997 0.03024 -0.1301 -0.1076 0.1345 0.03137
000070 da 2c 6d ac 04 b0 b6 29 1a b0 4f 2c de 23 a6 2b
       0.0758 -0.06915 -0.1255 0.04462 -0.1282 0.0673 0.015366 0.05975
000080 2c 2d 8d a6 63 30 40 af 96 ac cb af 86 af b3 25
       0.0808 -0.02559 0.1371 -0.1133 -0.07166 -0.12177 -0.11755 0.02226
000090 56 2c 35 ad 2c 2f f2 2f 8d 2c 0e ab 71 30 87 2b
       0.06775 -0.08136 0.11206 0.12415 0.0711 -0.0551 0.1388 0.0588
0000a0 33 2c 51 a9 13 30 6e 27 a0 b0 39 27 98 a8 52 b0
       0.0656 -0.04153 0.1273 0.02902 -0.1445 0.02821 -0.0359 -0.135
0000b0 b2 b0 08 ab 20 1f 9e 28 b3 9d cf aa 37 30 2c ad
       -0.1467 -0.05493 0.006958 0.03607 -0.005566 -0.0532 0.1317 -0.0808
0000c0 18 2e 71 b0 50 28 fd ac 1d ae ee 26 1e ae 35 2b
       0.0952 -0.1388 0.0337 -0.07794 -0.0955 0.02707 -0.0956 0.0563
0000d0 df af a2 ae 37 b0 17 30 47 ae 9c ae 40 2f 25 af
       -0.123 -0.10364 -0.1317 0.1278 -0.0981 -0.1033 0.1133 -0.11163
0000e0 c5 ac 2b 28 50 1f 45 30 76 b0 ea 20 b1 30 b3 af
       -0.0745 0.03256 0.00714 0.1334 -0.1394 0.0096 0.1466 -0.1203
0000f0 90 2c 38 ae dc a9 24 30 3f 9f 55 a9 46 2d f0 af
       0.0713 -0.09717 -0.04578 0.1294 -0.007076 -0.04166 0.0824 -0.124
000100 ea ab 41 ac a9 2a 34 a0 9d b0 1d a8 d4 28 17 a6
       -0.06183 -0.06647 0.05203 -0.00821 -0.1442 -0.03214 0.03772 -0.02379
000110 9c 28 13 2d 1f 30 df ac c7 2c dc 28 d3 2c b9 2c
       0.036 0.0793 0.1288 -0.0761 0.07465 0.03796 0.0754 0.0738
000120 7c 21 56 24 2f 30 f1 28 ee aa 39 aa 2b ad d7 2b
       0.01071 0.01694 0.1307 0.0386 -0.05414 -0.0486 -0.08075 0.06125
000130 c2 af 50 2f 25 ae 33 99 1f 30 6c 28 d0 ae ec 22
       -0.1212 0.11426 -0.096 -0.002539 0.1288 0.03455 -0.10645 0.01352
000140 82 25 b4 30 9a a7 c0 a8 45 a8 46 2c 3c 2b d7 a8
       0.02151 0.147 -0.0297 -0.0371 -0.03336 0.0668 0.05652 -0.0378
000150 73 ad 03 28 1f 2e f4 2c c7 ad a1 a2 95 28 59 af
       -0.08514 0.03134 0.09564 0.0774 -0.0903 -0.01295 0.0358 -0.1148
000160 96 30 83 29 b3 b0 bc ae 46 ad 2e 26 51 30 d5 ac
       0.1433 0.04306 -0.1469 -0.1052 -0.0824 0.02414 0.1349 -0.0755
000170 09 ad 91 ad 1c ac 63 29 64 26 39 30 b0 2f 3e 1e
       -0.0787 -0.087 -0.0642 0.04208 0.02496 0.132 0.1201 0.006096
000180 59 2b 3e 2e 53 92 b6 aa a0 b0 68 30 bc a9 01 9d
       0.0574 0.09753 -0.000772 -0.05243 -0.1445 0.1377 -0.0448 -0.004887
000190 55 28 4b 2f b2 a8 7e a5 04 a6 9b 2c 93 ad 73 2a
       0.03384 0.11395 -0.03668 -0.02145 -0.0235 0.07196 -0.0871 0.05038
0001a0 d0 2d 54 30 1f 28 27 28 8c ac 0c af 9d 2d 11 30
       0.0908 0.1353 0.0322 0.03244 -0.07104 -0.1101 0.0877 0.1271
0001b0 e2 2c e6 2d 3f ae 13 21 c2 a4 25 22 0a aa 37 b0
       0.0763 0.09216 -0.0976 0.00991 -0.01859 0.012 -0.04718 -0.1317
0001c0 0d 2f 82 2b cf ac 2d 9e 53 28 68 2b d0 af 9c 1e
       0.11017 0.05865 -0.07513 -0.00603 0.03378 0.05786 -0.1221 0.006454
0001d0 4e 1c 9a 30 37 ab 60 25 31 2d 5e af e4 ae d5 2b
       0.004204 0.1438 -0.05637 0.021 0.0811 -0.1151 -0.10767 0.0612
0001e0 ea 25 f1 ad a9 2d 8e 1e 6d 1a c8 2d 93 a4 5c 2c
       0.0231 -0.09283 0.08844 0.0064 0.003138 0.09033 -0.01787 0.0681
0001f0 37 ab 9d 2a 83 b0 16 ac 88 ab fc a9 64 2e d1 ae
       -0.05637 0.05167 -0.141 -0.06384 -0.05884 -0.04675 0.09985 -0.1065

arith.constant4 f2 [160, 128]
000000 58 ac 2a ad 95 22 9b 2b 4e 26 91 98 b8 26 17 29
       -0.0679 -0.0807 0.012856 0.05942 0.02463 -0.00223 0.02625 0.03976
000010 e7 98 d1 ad 4d af 0e af 29 a7 3e 28 d2 ab c5 28
       -0.002394 -0.0909 -0.1141 -0.1102 -0.02797 0.03314 -0.0611 0.03726
000020 ff 2d 20 2b b7 2f 75 29 c4 ac 1e 2d 6e a5 21 ae
       0.0937 0.05566 0.12054 0.04263 -0.07446 0.07996 -0.02121 -0.09576
000030 1e ae d5 2c ae 29 4e 2b a9 a9 6d 2c c4 2e c0 aa
       -0.0956 0.0755 0.04437 0.05707 -0.04422 0.06915 0.1057 -0.05273
000040 fc 2c 69 20 b3 2c f3 28 90 b0 99 23 f8 2f db ad
       0.0779 0.00861 0.0734 0.03867 -0.1426 0.01484 0.1245 -0.0915
000050 bd af 35 af ae a4 80 30 3f ac 79 2c 0a b0 10 a5
       -0.1209 -0.1126 -0.01828 0.1406 -0.06635 0.0699 -0.1262 -0.01978
000060 1b a8 f2 28 6b b0 37 29 75 a4 0b a5 b4 2e ae ac
       -0.03207 0.03864 -0.1381 0.04074 -0.01741 -0.0197 0.10474 -0.0731
000070 17 ac b0 ad 39 27 58 b0 3a 2d d9 af ff 2f 5c 24
       -0.0639 -0.08887 0.02821 -0.1357 0.08167 -0.1226 0.12494 0.01703
000080 18 2f a0 a9 7a 1d b0 ac 7c 2f b9 2d 34 ac 3a 2d
       0.11084 -0.04395 0.00535 -0.07324 0.11694 0.0894 -0.0657 0.08167
000090 6d ac 25 2f a0 a9 ef ad 5c 2b 44 2a e5 2b 9a 30
       -0.06915 0.11163 -0.04395 -0.0927 0.0575 0.04895 0.06168 0.1438
0000a0 0e 2f 2e 27 e9 2b 06 29 0b 30 89 2f 34 28 d6 24
       0.1102 0.02805 0.0618 0.03925 0.1263 0.11774 0.03284 0.01889
0000b0 5e a0 86 21 61 b0 ab a3 d4 ac 86 2a 1c ac fb 29
       -0.00853 0.01079 -0.1368 -0.01498 -0.07544 0.05096 -0.0642 0.04672
0000c0 31 2d a5 23 eb 24 ac 2a 7a a9 55 af 1f 2a d4 25
       0.0811 0.01493 0.01921 0.05212 -0.0428 -0.11456 0.04782 0.02277
0000d0 5a aa 7c 26 ee a8 a1 2e c4 a6 b4 26 32 24 c6 28
       -0.04962 0.02533 -0.0385 0.1036 -0.02643 0.02618 0.01639 0.0373
0000e0 a2 2f b5 1e 4a ae 4c 2b 73 29 78 ad 98 b0 c3 2c
       0.11926 0.00655 -0.09827 0.057 0.04257 -0.08545 -0.1436 0.0744
0000f0 78 a8 7c 1f 0f b0 0f 9b eb 2f e8 a7 50 2f 34 af
       -0.0349 0.00731 -0.1268 -0.003447 0.1237 -0.03088 0.11426 -0.11255
000100 16 9c 40 2b 25 b0 55 ab 69 2c e6 ad 76 30 62 29
       -0.00399 0.05664 -0.1295 -0.05728 0.0689 -0.09216 0.1394 0.04205
000110 4e af 2b ab 2b 30 81 af 2b 2a 4c 2e b9 28 56 2d
       -0.11414 -0.056 0.1302 -0.11725 0.0482 0.0984 0.0369 0.0834
000120 a7 ac 52 ac 20 30 88 17 7e 29 72 2d 6b 2c 94 30
       -0.0727 -0.0675 0.1289 0.001839 0.0429 0.0851 0.06903 0.1431
000130 88 2f ea ac 6e 2c 30 ac b1 24 76 a7 60 28 82 b0
       0.1177 -0.0768 0.0692 -0.0654 0.01833 -0.02914 0.03418 -0.1409
000140 76 30 b5 ae 3f a5 41 27 66 ac 77 2f 3a 2c 45 b0
       0.1394 -0.1048 -0.0205 0.02834 -0.0687 0.11664 0.06604 -0.1334
000150 17 9d 80 30 ed 25 f8 2e 3a b0 1e a6 62 b0 a1 25
       -0.00497 0.1406 0.02315 0.1089 -0.1321 -0.0239 -0.137 0.02199
000160 96 2d 2b ae 24 ae d7 2b 72 26 77 ad 90 ae 59 af
       0.0873 -0.0964 -0.09595 0.06125 0.02518 -0.0854 -0.10254 -0.1148
000170 d0 2d 2c b0 0c 2a 63 2a 85 30 f8 2e 1e a1 55 92
       0.0908 -0.1304 0.04724 0.0499 0.1412 0.1089 -0.009995 -0.000773
000180 ac ac 2c a4 de 2c e6 ab 79 30 8c 2d 0e 30 c7 aa
       -0.073 -0.0163 0.07605 -0.0617 0.1398 0.0867 0.1267 -0.05295
000190 fd 1e b7 af 58 a8 85 ad 02 ac 53 2d c1 2c f5 2e
       0.006824 -0.12054 -0.03394 -0.08624 -0.0626 0.0832 0.0743 0.1087
0001a0 4a ae 34 b0 95 ac 31 22 74 ab 9d 2c aa a8 a9 2d
       -0.09827 -0.1313 -0.0716 0.01209 -0.05823 0.0721 -0.03644 0.08844
0001b0 dc ac d5 a2 8a b0 22 ae 0f ab e4 ae a9 ad d2 2b
       -0.0759 -0.01334 -0.1418 -0.0958 -0.05515 -0.10767 -0.08844 0.0611
0001c0 d4 2e cc 21 13 ac 38 2f 1e 30 fe ac b7 ac e5 22
       0.1067 0.01132 -0.06366 0.1128 0.1287 -0.078 -0.07367 0.013466
0001d0 9d a6 4c 2f 9e 25 2e 29 06 99 cf 2e 96 2e c6 a7
       -0.02583 0.114 0.02194 0.04047 -0.002453 0.1064 0.1029 -0.03036
0001e0 b5 2d 09 ae 70 27 58 9d fa a9 cf 2f d7 af 17 2b
       0.0892 -0.0943 0.02905 -0.00522 -0.0467 0.122 -0.1225 0.0554
0001f0 57 2c fd 2f 6a 2a bd a8 e3 ae 86 aa 2e ad 95 ac
       0.0678 0.1248 0.0501 -0.03702 -0.1076 -0.05096 -0.08093 -0.0716

arith.constant5 f2 [16]
000000 00 00 00 00 00 00 00 00 00 00 00 00 00 00 00 00
       0.0 0.0 0.0 0.0 0.0 0.0 0.0 0.0
000010 00 00 00 00 00 00 00 00 00 00 00 00 00 00 00 00
       0.0 0.0 0.0 0.0 0.0 0.0 0.0 0.0

arith.constant6 f2 [16, 5, 5, 2]
000000 d2 ae 08 22 05 1e 9b 2b d7 a7 d1 1b 96 a4 8c 2d
       -0.10657 0.01178 0.00588 0.05942 -0.03062 0.003817 -0.01791 0.0867
000010 28 2c ab ac 95 ab 8c ab e8 ac d8 a9 c6 22 22 aa
       0.06494 -0.07294 -0.05923 -0.05896 -0.07666 -0.04565 0.01323 -0.0479
000020 2e 26 38 20 f6 ab d7 2a 76 aa 71 ad a6 ae 33 ad
       0.02414 0.00824 -0.0622 0.05344 -0.05048 -0.085 -0.1039 -0.08124
000030 30 2c 7a 2c 8a ab c9 2a 22 2b 38 26 1e ae 42 2a
       0.0654 0.06995 -0.0589 0.053 0.05573 0.02429 -0.0956 0.0489
000040 f0 ac ea 22 c6 9b 0f a9 59 2f be a4 ae a3 c1 a7
       -0.07715 0.013504 -0.003796 -0.03952 0.1148 -0.01852 -0.015 -0.03029
000050 ac a1 3d aa 80 a6 7f ac 43 24 73 a4 90 a8 c4 ac
       -0.01108 -0.04874 -0.02539 -0.07025 0.01665 -0.01738 -0.03564 -0.07446
000060 b7 2d 46 ac a0 ac 4d 2a dc 2e cf a9 4b 2f 12 a8
       0.0893 -0.0668 -0.07227 0.04922 0.1072 -0.04538 0.11395 -0.0318
000070 0e 2c 7b 2d 04 a6 ae 28 c4 27 6d ae 1d 2a ed 2e
       0.06335 0.08563 -0.0235 0.03656 0.03033 -0.1004 0.04776 0.1082
000080 9e 24 3a 2d a5 2b 1a 2c 92 29 b5 22 c6 28 cd 2a
       0.01804 0.08167 0.05972 0.0641 0.04352 0.0131 0.0373 0.05313
000090 07 2f 9f a8 23 ae 29 a9 aa 21 c8 2b eb 2d 9e 24
       0.1098 -0.0361 -0.0959 -0.0403 0.01106 0.0608 0.09247 0.01804
0000a0 0c 2e 15 2f 2e a8 3f 18 ee 2c be 9e 67 ac 4b 2c
       0.0945 0.11066 -0.03265 0.002073 0.077 -0.006584 -0.0688 0.0671
0000b0 70 9f 31 ab b1 2e 91 ae 07 a5 ed 1b b0 2b 45 2f
       -0.007263 -0.05618 0.10455 -0.1026 -0.01964 0.00387 0.06006 0.1136
0000c0 60 2f a6 ad 4d aa a4 24 d6 ac 2d ad 5a ae 94 24
       0.11523 -0.08826 -0.04922 0.01813 -0.07556 -0.0809 -0.09924 0.01788
0000d0 f9 92 5c af 42 a9 0c af 0d a7 12 ac df 28 a5 2b
       -0.000851 -0.115 -0.04108 -0.1101 -0.02754 -0.0636 0.03806 0.05972
0000e0 ee a6 6c a0 a0 22 40 ad a4 99 ef ac a2 2d bf a9
       -0.02707 -0.00864 0.01294 -0.08203 -0.002754 -0.0771 0.088 -0.0449
0000f0 1a 29 72 ad 5b a9 e5 2e 8f ad bc ac e7 2c d6 ab
       0.03986 -0.0851 -0.04184 0.1077 -0.08685 -0.074 0.0766 -0.06122
000100 4a a2 32 ad f2 29 59 a9 65 aa e0 2d 3d 2d 69 29
       -0.01228 -0.0812 0.04645 -0.04178 -0.04996 0.0918 0.08185 0.04227
000110 02 2d 67 20 a1 1d 4b af ab 27 f9 29 f0 25 ea 2e
       0.07825 0.0086 0.005497 -0.11395 0.02995 0.04666 0.0232 0.10803
000120 9a 29 90 97 63 a3 06 2d 5e ae c5 a8 ee ae 8b 2b
       0.04376 -0.001846 -0.01443 0.0785 -0.0995 -0.03726 -0.1083 0.05893
000130 e8 99 3c 27 e4 29 55 2e 7e aa 96 ae da 1e de ac
       -0.002884 0.02826 0.04602 0.09894 -0.05072 -0.1029 0.00669 -0.07605
000140 f1 24 02 2e 18 2f df 2e b6 ab e4 aa 6c ae cd 2d
       0.0193 0.0939 0.11084 0.10736 -0.06024 -0.05383 -0.10034 0.09064
000150 e2 aa c8 a2 53 2d 21 a8 dc aa 91 9c c2 9f af a7
       -0.05377 -0.013245 0.0832 -0.03226 -0.0536 -0.00446 -0.007576 -0.03001
000160 50 ad 12 28 9c ab 7c 20 58 ae bb 90 6c 28 37 aa
       -0.083 0.0318 -0.05945 0.00876 -0.0991 -0.0005774 0.03455 -0.04855
000170 fd 2c 7d 2c df a3 94 ac 49 a0 7e 96 94 27 de 2c
       0.07794 0.0701 -0.01537 -0.07153 -0.00837 -0.001585 0.0296 0.07605
000180 5a a4 e1 ab f7 20 ef ac 12 2a dc 27 b0 2d 1c ae
       -0.017 -0.06155 0.0097 -0.0771 0.04742 0.0307 0.08887 -0.09546
000190 2a aa 85 a4 73 2e d9 ac 43 2c 3d 2f af 2e 69 ab
       -0.04816 -0.01765 0.10077 -0.07574 0.0666 0.1131 0.10443 -0.0579
0001a0 11 af 77 26 f3 ae 78 ae 5c 27 b2 21 3c 29 37 2d
       -0.1104 0.02525 -0.1086 -0.1011 0.02875 0.01112 0.0409 0.0815
0001b0 48 ac 13 ae 52 29 3f 29 1b 25 e1 18 49 aa 00 2c
       -0.0669 -0.0949 0.04156 0.041 0.01994 0.002382 -0.0491 0.0625
0001c0 e6 2e f4 aa ad 2d 6c ac 1f 2e 9c aa d2 a8 4c a4
       0.1078 -0.05432 0.0887 -0.0691 0.09564 -0.05164 -0.03766 -0.01678
0001d0 9e 11 3a 2e 0a ab 43 9f 0c 2e 6c ad b7 2e 33 ac
       0.0006857 0.0973 -0.055 -0.00709 0.0945 -0.0847 0.1049 -0.0656
0001e0 54 ab fd a6 4c 28 55 a8 47 2e 23 a1 85 23 f3 a9
       -0.05725 -0.0273 0.03357 -0.03384 0.0981 -0.01003 0.01469 -0.04648
0001f0 fa a8 0c ab 21 28 89 9d 6c 28 f6 2b 35 aa 20 a1
       -0.03888 -0.05505 0.03226 -0.005405 0.03455 0.0622 -0.0485 -0.01001

arith.constant7 f2 [64]
000000 00 00 00 00 00 00 00 00 00 00 00 00 00 00 00 00
       0.0 0.0 0.0 0.0 0.0 0.0 0.0 0.0
000010 00 00 00 00 00 00 00 00 00 00 00 00 00 00 00 00
       0.0 0.0 0.0 0.0 0.0 0.0 0.0 0.0
000020 00 00 00 00 00 00 00 00 00 00 00 00 00 00 00 00
       0.0 0.0 0.0 0.0 0.0 0.0 0.0 0.0
000030 00 00 00 00 00 00 00 00 00 00 00 00 00 00 00 00
       0.0 0.0 0.0 0.0 0.0 0.0 0.0 0.0
000040 00 00 00 00 00 00 00 00 00 00 00 00 00 00 00 00
       0.0 0.0 0.0 0.0 0.0 0.0 0.0 0.0
000050 00 00 00 00 00 00 00 00 00 00 00 00 00 00 00 00
       0.0 0.0 0.0 0.0 0.0 0.0 0.0 0.0
000060 00 00 00 00 00 00 00 00 00 00 00 00 00 00 00 00
       0.0 0.0 0.0 0.0 0.0 0.0 0.0 0.0
000070 00 00 00 00 00 00 00 00 00 00 00 00 00 00 00 00
       0.0 0.0 0.0 0.0 0.0 0.0 0.0 0.0

arith.constant8 f2 [8]
000000 00 00 00 00 00 00 00 00 00 00 00 00 00 00 00 00
       0.0 0.0 0.0 0.0 0.0 0.0 0.0 0.0

arith.constant9 f2 [8, 3, 3, 16]
000000 a0 30 e1 a1 c8 aa 47 ae 50 2e e2 29 f5 22 e9 ae
       0.1445 -0.01148 -0.05298 -0.0981 0.09863 0.04596 0.01359 -0.108
000010 71 2a d7 21 b9 ac 23 28 58 28 b2 0a ba 26 60 2d
       0.05032 0.011406 -0.0738 0.03232 0.03394 0.0002043 0.02628 0.084
000020 60 ad 2a 31 a0 2f 7f b0 83 aa 68 2c ce 9d 61 2d
       -0.084 0.1614 0.11914 -0.1405 -0.05087 0.06885 -0.00567 0.08405
000030 c3 a9 aa ac 87 b0 fa 25 1e 27 0e 2d f7 25 98 2c
       -0.045 -0.0729 -0.1415 0.02335 0.0278 0.079 0.0233 0.0718
000040 d4 ad 86 af ba 30 a8 a4 db ad 0d 30 22 31 8d 2d
       -0.09106 -0.11755 0.1477 -0.01819 -0.0915 0.1266 0.1604 0.08673
000050 0a ac 61 ac 96 af 06 ac 9b ac b5 2b e5 a7 01 29
       -0.0631 -0.0684 -0.1185 -0.06287 -0.07196 0.0602 -0.03084 0.0391
000060 60 25 1c b1 4a ac 3f 2a d9 a7 47 ab 43 b0 f5 2f
       0.021 -0.1597 -0.067 0.0488 -0.03065 -0.05685 -0.1332 0.1243
000070 ef 9d f7 b0 28 30 1b 31 c8 30 e1 27 49 b0 c4 ac
       -0.005795 -0.1552 0.1299 0.1595 0.1494 0.03078 -0.1339 -0.07446
000080 bf 2f 40 2b 7f ae 53 ad 1a b1 81 2d 98 30 01 9e
       0.12103 0.05664 -0.1015 -0.0832 -0.1594 0.086 0.1436 -0.005863
000090 7a a1 52 b1 1d 28 70 ac cf 30 a9 ae e7 b0 da 30
       -0.0107 -0.1663 0.03214 -0.06934 0.1503 -0.10406 -0.1532 0.1516
0000a0 77 ac fa 2c d4 aa de 26 d5 2b 8e b0 34 b0 9b 28
       -0.06976 0.07776 -0.05334 0.02682 0.0612 -0.1423 -0.1313 0.03598
0000b0 4d b1 72 a9 df 2d ff 2d 17 ac 3e 2c e1 27 57 21
       -0.1656 -0.04254 0.09174 0.0937 -0.0639 0.0663 0.03078 0.01043
0000c0 40 af 59 b0 61 20 71 30 13 b1 32 a3 73 ad 95 2f
       -0.1133 -0.1359 0.00855 0.1388 -0.1586 -0.01405 -0.08514 0.11847
0000d0 54 a4 cc a7 dc a4 23 8e 0c 31 13 28 b4 ab 2a af
       -0.0169 -0.03046 -0.01898 -0.0003746 0.1577 0.03183 -0.06018 -0.11194
0000e0 c8 2d b4 25 db 2f 27 2f a1 2e 39 a6 ba 2a 65 29
       0.09033 0.02228 0.12274 0.11176 0.1036 -0.0243 0.05255 0.04214
0000f0 a7 a6 ad 26 d1 28 1f 27 6e 28 99 2f 49 ad 3e af
       -0.02599 0.02608 0.03763 0.02782 0.0346 0.1187 -0.0826 -0.11316
000100 a0 b0 4f 2f 0b 31 0e 31 45 30 3b 31 41 31 2d b0
       -0.1445 0.1142 0.1576 0.158 0.1334 0.1635 0.1642 -0.1305
000110 a1 ae 37 2d 42 25 fa a4 1b 2f a8 9c 0b 31 ac a4
       -0.1036 0.0815 0.02054 -0.01944 0.111 -0.004547 0.1576 -0.01825
000120 50 b0 98 28 16 ac 13 b1 d0 ae c9 a7 39 b0 ce ad
       -0.1348 0.0359 -0.06384 -0.1586 -0.10645 -0.03041 -0.132 -0.0907
000130 3c 29 74 ab f8 b0 21 b0 9e 30 58 2f dc aa 1f b1
       0.0409 -0.05823 -0.1553 -0.129 0.1443 0.11475 -0.0536 -0.16
000140 0f af e6 30 17 a4 ab 2d 13 23 68 a8 5b b0 40 94
       -0.1103 0.1531 -0.01598 0.08856 0.01382 -0.03442 -0.1361 -0.001038
000150 1f 2f 5a a6 5b ad 84 a1 08 ad 2a 30 cf 28 2b 1c
       0.11127 -0.02481 -0.0837 -0.01077 -0.0786 0.1301 0.03757 0.00407
000160 85 2b f2 29 44 31 c3 ac 1c b0 95 28 94 30 f7 ae
       0.05875 0.04645 0.1646 -0.0744 -0.1284 0.0358 0.1431 -0.1088
000170 fa aa 33 2f c7 b0 b4 b0 0a ab c7 30 d0 2e 91 b0
       -0.0545 0.1125 -0.1493 -0.147 -0.055 0.1493 0.10645 -0.1427
000180 c4 2c 40 31 e7 a7 6c ac 8d 30 b8 2c aa 24 66 b0
       0.07446 0.1641 -0.03087 -0.0691 0.1422 0.0737 0.01822 -0.1375
000190 db 30 56 ac 33 b0 eb af 5b 30 ec af d0 2f 09 30
       0.1517 -0.06775 -0.1312 -0.1237 0.1361 -0.1238 0.1221 0.1261
0001a0 b0 27 81 25 9b 1f fd 9f a6 29 b8 b0 0d ae 6b aa
       0.03003 0.0215 0.007427 -0.0078 0.04413 -0.1475 -0.09454 -0.05014
0001b0 5b 2d 7a a9 44 2c 2d a0 70 a4 91 aa c1 2a 55 29
       0.0837 -0.0428 0.06665 -0.008156 -0.01733 -0.0513 0.05276 0.04166
0001c0 bd af d8 ad 9d 2b 71 b0 f0 b0 64 2f 2d b1 fd 24
       -0.1209 -0.0913 0.05948 -0.1388 -0.1543 0.1155 -0.1617 0.01949
0001d0 8d 2d 8d 25 85 a4 07 ad 8e 2a 8a ac 4b b0 6b a7
       0.08673 0.02168 -0.01765 -0.07855 0.0512 -0.0709 -0.1342 -0.02898
0001e0 01 b0 f6 ae 12 ad 5b a8 2f ad a3 2e a9 1d 2a b0
       -0.1251 -0.10876 -0.0792 -0.03403 -0.081 0.1037 0.005527 -0.1301
0001f0 9a 2c ec 2f 4b 28 9c 30 92 29 01 b0 d3 2f 42 2a
       0.0719 0.1238 0.03354 0.144 0.04352 -0.1251 0.12225 0.0489

arith.constant10 f2 [16, 3, 3, 8]
000000 dc 1d d1 ad 55 b1 24 a6 ff 2f fb 2b 4a b0 1a b1
       0.005722 -0.0909 -0.1666 -0.02399 0.12494 0.06235 -0.134 -0.1594
000010 1f ae c6 2a bc 27 62 b0 93 aa 01 27 8a ac a2 30
       -0.09564 0.05292 0.03021 -0.137 -0.05136 0.02736 -0.0709 0.1448
000020 42 b1 dd ab 78 ad 01 2d f5 a4 89 aa ad 2f d2 ae
       -0.1643 -0.06143 -0.08545 0.0782 -0.01936 -0.05106 0.11993 -0.10657
000030 d4 29 d8 ae bf 2d 8f 30 55 28 d5 ab 2d 20 96 a6
       0.04553 -0.10693 0.0898 0.1425 0.03384 -0.0612 0.008156 -0.02573
000040 8b b0 5c 28 77 99 a1 30 e2 1f 22 a4 c2 a9 1d 2c
       -0.142 0.03406 -0.002668 0.1447 0.007698 -0.01614 -0.04498 0.0643
000050 d7 ae 2e 29 d8 2c 17 ae 9e ae 02 ad 1f b0 d4 af
       -0.1069 0.04047 0.0757 -0.09515 -0.1034 -0.07825 -0.1288 -0.1223
000060 46 31 15 30 00 2c f5 2e cc b0 ab ac 2d 2f 13 2d
       0.1648 0.1276 0.0625 0.1087 -0.1499 -0.07294 0.1121 0.0793
000070 30 29 96 2e 0b 2d 2e ab 89 30 33 30 12 0c 0c ab
       0.04053 0.1029 0.0788 -0.0561 0.1417 0.1312 0.0002484 -0.05505
000080 a0 21 79 b0 84 ac b9 ae 1d b1 27 29 c7 af 60 af
       0.01099 -0.1398 -0.07056 -0.10504 -0.1598 0.04025 -0.1215 -0.11523
000090 3f 2b 15 b0 4f b1 0f ad b2 b0 ea 30 00 27 c0 25
       0.0566 -0.1276 -0.1659 -0.07904 -0.1467 0.1536 0.02734 0.02246
0000a0 bd a6 ab ac 91 2c 31 ae e7 a3 0d 31 05 ae b1 2c
       -0.02632 -0.07294 0.07135 -0.09674 -0.015434 0.1578 -0.09406 0.0733
0000b0 58 a2 ae a8 b8 2e c9 2c d8 2d a7 a9 78 26 b0 30
       -0.01239 -0.03656 0.105 0.07477 0.0913 -0.04416 0.02527 0.1465
0000c0 c1 ad 8a b0 ec 2f 1e 92 8e b0 48 31 97 ab 45 9b
       -0.0899 -0.1418 0.1238 -0.0007467 -0.1423 0.165 -0.0593 -0.00355
0000d0 bd 2e 59 af 47 2e 1a ae 0f b1 62 2c 93 2b 15 2e
       0.1053 -0.1148 0.0981 -0.09534 -0.1581 0.0685 0.05917 0.09503
0000e0 2e ab 24 2b b3 2e a4 ae 92 ac 71 30 33 2d 6f a8
       -0.0561 0.0558 0.1047 -0.10376 -0.0714 0.1388 0.08124 -0.03464
0000f0 f7 30 1f 2e f9 ad b7 ac 9c b0 cd 2f 71 30 8b 2c
       0.1552 0.09564 -0.0933 -0.07367 -0.144 0.1219 0.1388 0.071
000100 9c 2f b0 2d 87 2a 08 30 41 31 74 ae 8a 99 0a a8
       0.1189 0.08887 0.051 0.126 0.1642 -0.1008 -0.002705 -0.03156
000110 d3 b0 e0 a0 7a 30 ef 30 b7 ae 4d ad b4 a9 2f 31
       -0.1508 -0.00952 0.1399 0.1542 -0.1049 -0.0828 -0.04456 0.162
000120 53 30 de ae 95 af a7 ae 08 2d 62 af 23 30 35 ad
       0.1351 -0.1073 -0.11847 -0.10394 0.0786 -0.11536 0.1293 -0.08136
000130 47 2a a2 30 51 2a ba 30 6b 2b fb 30 94 af c5 1a
       0.04904 0.1448 0.04935 0.1477 0.05795 0.1556 -0.1184 0.003305
000140 bf 30 50 28 81 27 5d 1a c0 23 c7 2d 88 aa 5e 28
       0.1483 0.0337 0.02931 0.003107 0.01514 0.0903 -0.05103 0.03412
000150 34 31 8d b0 9f a9 c1 ac 6b 2e 86 ad bb a0 51 2d
       0.1626 -0.1422 -0.0439 -0.0743 0.1003 -0.0863 -0.00924 0.08307
000160 cb 2c d7 2a f3 26 43 ac 39 ab 39 2c 51 ae d0 b0
       0.0749 0.05344 0.02715 -0.0666 -0.05643 0.066 -0.0987 -0.1504
000170 12 a9 64 2b 18 af 16 2d 3d 28 7a 1b 3b 2c 6e 2c
       -0.0396 0.05774 -0.11084 0.07947 0.0331 0.00365 0.0661 0.0692
000180 f7 a9 eb a9 8f a9 40 2d 64 2e 82 28 7b ae 9d a0
       -0.0466 -0.04623 -0.04343 0.08203 0.09985 0.03522 -0.10126 -0.00901
000190 96 a1 50 90 bb ad 55 2a 50 b1 ad 27 89 af 26 21
       -0.01091 -0.0005264 -0.08954 0.04947 -0.166 0.02998 -0.11774 0.010056
0001a0 bd 08 8e 30 11 a9 6b 26 97 b0 a2 b0 22 b1 99 aa
       0.0001446 0.1423 -0.03958 0.02507 -0.1434 -0.1448 -0.1604 -0.05154
0001b0 2c aa fd b0 6a af 07 2c 8c a8 17 ae 93 24 14 ad
       -0.04822 -0.1559 -0.11584 0.0629 -0.03552 -0.09515 0.01787 -0.07935
0001c0 6c b0 fc a9 8f aa 92 af a8 2c bc 2d bc 2c e9 2e
       -0.1382 -0.04675 -0.05124 -0.1183 0.07275 0.0896 0.074 0.108
0001d0 5c 30 70 ad 6b 2c 65 ac 23 29 21 30 9a a4 67 a6
       0.1362 -0.08496 0.06903 -0.06866 0.04013 0.129 -0.01797 -0.02501
0001e0 0a 30 bb 2a b2 2f 91 30 e3 27 ee 30 e2 2c ff 18
       0.1262 0.05258 0.12024 0.1427 0.0308 0.154 0.0763 0.00244
0001f0 c5 2e 96 2d e5 a5 f9 af 56 2f 8d ac 89 30 54 2e
       0.1058 0.0873 -0.02303 -0.1246 0.1146 -0.0711 0.1417 0.0989

arith.constant11 f2 [64, 3, 3, 16]
000000 83 b5 5b 2a d2 b2 44 31 15 b4 ed 34 46 b4 cf 34
       -0.3445 0.04965 -0.2131 0.1646 -0.2551 0.3079 -0.267 0.3005
000010 62 b5 1d aa cf 2d e8 b1 92 b1 d3 34 a1 a5 70 b4
       -0.3364 -0.04776 0.09076 -0.1846 -0.1741 0.3015 -0.02199 -0.2773
000020 d3 2c 18 20 8e 2d ea ae 5d 31 cf b3 fa 9f 13 ae
       0.0754 0.007996 0.0868 -0.10803 0.1676 -0.244 -0.00779 -0.0949
000030 13 31 96 a9 db 34 5b 1c 1e 24 89 34 33 b3 e7 33
       0.1586 -0.04364 0.3035 0.004253 0.01608 0.2834 -0.225 0.247
000040 de 30 e6 af 33 2e 5c 31 77 31 07 28 84 a9 50 b5
       0.1521 -0.1234 0.09686 0.1675 0.1708 0.03146 -0.0431 -0.332
000050 95 31 28 30 c4 35 21 a5 7f 34 5b b5 b7 b0 d9 33
       0.1744 0.1299 0.3604 -0.02003 0.281 -0.3347 -0.1473 0.2452
000060 4c b5 59 ac d8 b4 b1 b4 6e 34 00 aa 7e ab ce a5
       -0.331 -0.06793 -0.3027 -0.2932 0.2769 -0.04688 -0.05853 -0.02267
000070 13 b1 6c 34 6b b1 c8 b4 6f 34 bb 31 73 ae 56 2c
       -0.1586 0.2764 -0.1693 -0.2988 0.277 0.1791 -0.10077 0.06775
000080 a4 31 5a 2b e9 30 1e b5 6f 2d 62 b2 54 32 2d 32
       0.1763 0.05743 0.1534 -0.3198 0.0849 -0.1995 0.1978 0.193
000090 24 31 3f b5 53 b5 a8 b4 40 30 4c 30 36 35 57 35
       0.1606 -0.328 -0.3328 -0.291 0.1328 0.1343 0.3257 0.3337
0000a0 b7 32 f1 2c 3f a7 91 ae 1f a7 fa aa 4e b2 3e ac
       0.2098 0.0772 -0.0283 -0.1026 -0.02782 -0.0545 -0.197 -0.0663
0000b0 51 b5 39 33 26 32 b7 b0 56 26 e8 ae 83 b0 1f 35
       -0.3323 0.2257 0.1921 -0.1473 0.02475 -0.1079 -0.141 0.32
0000c0 33 35 10 33 32 28 75 b3 69 b3 52 32 d3 ad 1d 32
       0.325 0.2207 0.03278 -0.233 -0.2316 0.1975 -0.091 0.191
0000d0 65 35 23 b3 21 ae 6c ab b0 31 70 b4 08 b5 93 17
       0.3372 -0.223 -0.09576 -0.05798 0.1777 -0.2773 -0.3145 0.001849
0000e0 d1 30 1c 22 0d ad 6b 2c 07 2d ac b5 2d b5 86 32
       0.1505 0.01193 -0.0789 0.06903 0.07855 -0.3545 -0.3235 0.2039
0000f0 85 21 d9 ac 86 25 1f b4 34 b0 2c 2b 4a 34 95 a1
       0.01078 -0.07574 0.02158 -0.2576 -0.1313 0.05603 0.268 -0.0109
000100 b4 33 15 35 57 af f8 b3 05 2e c9 2a 20 28 67 35
       0.2407 0.3176 -0.1147 -0.249 0.09406 0.053 0.03223 0.3376
000110 da 29 37 aa 4c b0 4d a7 3f b3 d8 30 d9 a5 d4 20
       0.04572 -0.04855 -0.1343 -0.02852 -0.2264 0.1514 -0.02284 0.00943
000120 69 30 81 32 7a 32 bb 1a 93 33 66 2f f6 ab 53 b1
       0.1378 0.2032 0.2024 0.003286 0.2367 0.1156 -0.0622 -0.1664
000130 f6 ab b8 b4 d8 b3 d2 35 8e af 61 34 cc 2b 98 2c
       -0.0622 -0.295 -0.2451 0.3638 -0.11804 0.2737 0.0609 0.0718
000140 60 b5 1a b3 1a a9 03 a4 b6 b3 27 a6 9e b2 e8 ab
       -0.336 -0.2219 -0.03986 -0.01567 -0.241 -0.02403 -0.2068 -0.06177
000150 ae 34 33 b3 01 b5 4d b3 49 33 38 b0 d5 33 c7 31
       0.2925 -0.225 -0.3127 -0.2281 0.2277 -0.1318 0.2448 0.1805
000160 9d 31 80 b5 df 26 9e ac 27 2c 79 35 83 34 15 b5
       0.1754 -0.3438 0.02684 -0.07214 0.0649 0.342 0.282 -0.3176
000170 f0 af a7 34 cd b2 13 29 12 b1 4d 21 7b b4 b9 ad
       -0.124 0.2908 -0.2125 0.03964 -0.1584 0.01035 -0.28 -0.0894
000180 bd 34 ef 30 ba 34 c6 b3 13 ae f4 32 ff b2 fb b2
       0.2961 0.1542 0.2954 -0.2429 -0.0949 0.2173 -0.2186 -0.2181
000190 22 ab 7f a3 63 35 c1 2e dd b4 67 34 01 30 0c b3
       -0.05573 -0.01464 0.3367 0.1055 -0.304 0.2751 0.1251 -0.2202
0001a0 76 29 bd 2c 89 b1 4d a5 74 33 f9 ae 88 b5 41 33
       0.04266 0.07404 -0.173 -0.0207 0.2329 -0.10895 -0.3457 0.2267
0001b0 4a b4 c3 35 fd 34 31 31 93 b0 aa b2 32 b1 51 34
       -0.268 0.36 0.3118 0.1622 -0.143 -0.2083 -0.1624 0.2698
0001c0 13 31 8e 24 09 a1 40 b3 ef b0 9b 2a 5a b4 ad 33
       0.1586 0.01779 -0.009834 -0.2266 -0.1542 0.0516 -0.272 0.2399
0001d0 69 a6 ae b4 1d 34 cf 35 e4 30 68 30 d3 34 99 33
       -0.02504 -0.2925 0.257 0.363 0.1528 0.1377 0.3015 0.2374
0001e0 83 b4 43 2f 32 34 97 b5 c7 30 03 ae ea 32 71 b5
       -0.282 0.11346 0.2622 -0.3494 0.1493 -0.09393 0.2161 -0.34
0001f0 a9 30 04 31 67 ae 60 31 f2 ac 0f b2 b1 b5 b9 34
       0.1456 0.1567 -0.10004 0.168 -0.0773 -0.1893 -0.3557 0.2952

arith.constant12 f2 [16, 3, 3, 64]
000000 ef b4 5d 35 46 b1 b4 19 0e 34 dc ac e1 34 c3 35
       -0.3083 0.3352 -0.1648 0.002785 0.2534 -0.0759 0.305 0.36
000010 06 b3 5a ac 39 ac 4f 30 94 b4 56 b5 47 b1 c4 31
       -0.2195 -0.068 -0.066 0.1346 -0.2861 -0.3335 -0.1649 0.1802
000020 eb b4 81 b2 3c ad 4c 33 2b 34 61 34 4d ad 01 ae
       -0.3074 -0.2032 -0.0818 0.228 0.2605 0.2737 -0.0828 -0.0938
000030 bd 1f 80 b5 6d ae 9b 2e 40 b2 68 a1 c0 34 e3 30
       0.007557 -0.3438 -0.1004 0.1032 -0.1953 -0.01056 0.2969 0.1527
000040 c9 2c d6 b3 f9 24 44 b5 8f 33 94 b3 bf 34 7d aa
       0.07477 -0.2449 0.01942 -0.329 0.2362 -0.2368 0.2966 -0.0507
000050 7f 31 ce b4 77 af 96 35 b1 30 f1 ac a1 34 8d 2b
       0.1718 -0.3003 -0.11664 0.349 0.1466 -0.0772 0.2893 0.059
000060 72 ad d7 b3 44 33 25 33 76 b5 61 af 95 b0 41 b5
       -0.0851 -0.245 0.227 0.2233 -0.3413 -0.1153 -0.1432 -0.3284
000070 be b5 c2 34 04 b5 5f 2b b2 33 e4 b4 fb b2 49 b4
       -0.359 0.2974 -0.3135 0.0576 0.2405 -0.3057 -0.2181 -0.2678
000080 1f b4 d4 26 6a 30 c7 32 bd a8 73 b1 75 b5 12 b4
       -0.2576 0.02667 0.138 0.2118 -0.03702 -0.1703 -0.341 -0.2544
000090 89 34 28 33 59 b1 46 aa db 31 d4 b3 8f b5 4a 26
       0.2834 0.2236 -0.1671 -0.049 0.183 -0.2446 -0.3474 0.02457
0000a0 65 30 d0 2c 9a 34 8f b1 cb ae 9d 35 c7 32 5e b0
       0.1373 0.0752 0.2876 -0.1737 -0.10614 0.3508 0.2118 -0.1365
0000b0 d0 b1 c9 b3 15 33 c9 b5 aa 35 79 b5 43 b0 81 ad
       -0.1816 -0.2433 0.2213 -0.3616 0.354 -0.342 -0.1332 -0.086
0000c0 a8 b1 a4 2f 19 34 de ae b6 a6 a5 34 59 32 9a a0
       -0.1768 0.1194 0.256 -0.1073 -0.02621 0.2903 0.1984 -0.00899
0000d0 c5 34 55 33 02 35 13 b4 c3 b3 38 35 70 b1 2c 35
       0.298 0.2291 0.313 -0.2546 -0.2426 0.3262 -0.1699 0.3232
0000e0 19 30 b5 31 2a a7 91 30 fc 34 f3 ad b3 35 8d b2
       0.128 0.1783 -0.02798 0.1427 0.3115 -0.09296 0.3562 -0.2047
0000f0 73 b0 19 ac 8b af 01 a9 77 ab 91 a0 43 b4 63 b4
       -0.139 -0.064 -0.11786 -0.0391 -0.05832 -0.00892 -0.2664 -0.2742
000100 52 30 8b b4 ca af d5 2f 40 ac 73 b1 e1 ad 4a 30
       0.135 -0.284 -0.1217 0.1224 -0.0664 -0.1703 -0.09186 0.134
000110 3f 35 91 b5 65 34 3f b5 b1 ac c3 2b 33 34 27 b1
       0.328 -0.348 0.2747 -0.328 -0.0733 0.06064 0.2625 -0.161
000120 4e 35 aa 31 8c ac 5c 2b 68 b4 85 2c 4a b0 ce 2e
       0.3315 0.177 -0.07104 0.0575 -0.2754 0.0706 -0.134 0.1063
000130 bd 34 d3 22 f4 b2 ba 33 ac b1 0e b5 2c 2f 13 a4
       0.2961 0.01333 -0.2173 0.2415 -0.1772 -0.316 0.11206 -0.01591
000140 64 24 a3 35 0c b1 55 b2 40 33 5f b5 e0 a8 8f 30
       0.01715 0.3523 -0.1577 -0.1979 0.2266 -0.3357 -0.0381 0.1425
000150 b0 ac 28 31 d9 a5 6b b5 4f 32 c4 b5 aa 32 85 b5
       -0.07324 0.1611 -0.02284 -0.3386 0.1971 -0.3604 0.2083 -0.345
000160 3a aa a7 30 6f 30 84 2f 0a 2a 0a a0 94 b1 6d 2e
       -0.04865 0.1454 0.1385 0.11743 0.04718 -0.00789 -0.1743 0.1004
000170 e6 2f 5a 35 c8 b4 87 b5 14 b4 72 b5 15 34 c5 ae
       0.1234 0.3345 -0.2988 -0.3455 -0.255 -0.3403 0.2551 -0.1058
000180 34 b1 74 35 1e 30 36 32 9d 31 54 35 b3 35 6d b2
       -0.1626 0.3408 0.1287 0.1941 0.1754 0.333 0.3562 -0.2008
000190 c2 35 e3 26 1a 35 e4 30 d1 b5 85 b3 1b 35 c8 30
       0.3599 0.0269 0.3188 0.1528 -0.3635 -0.235 0.319 0.1494
0001a0 83 35 75 ab f0 ad 1b 32 8a b0 0b 32 4a 22 0b a8
       0.3445 -0.05826 -0.0928 0.1908 -0.1418 0.1888 0.01228 -0.0316
0001b0 5a ab db 31 80 33 a3 2a 46 30 1e ad f4 aa 4e b0
       -0.05743 0.183 0.2344 0.05185 0.1335 -0.07996 -0.05432 -0.1345
0001c0 5d b1 ce b1 a8 ae a9 b0 7d 34 e3 a5 5b b5 1f 32
       -0.1676 -0.1814 -0.104 -0.1456 0.2805 -0.023 -0.3347 0.1913
0001d0 9e 34 d4 34 b6 34 ff ac a6 b4 87 b4 20 b2 03 35
       0.2886 0.3018 0.2944 -0.07806 -0.2905 -0.283 -0.1914 0.3132
0001e0 b0 2c ce 35 c5 b4 13 32 f2 2f 2e ae 9a b2 50 b1
       0.07324 0.3628 -0.298 0.1898 0.12415 -0.09656 -0.2063 -0.166
0001f0 99 25 df 32 1e 2c df b0 63 30 36 b3 85 33 b3 35
       0.02187 0.2147 0.06433 -0.1522 0.1371 -0.2253 0.235 0.3562

arith.constant13 f2 [16, 3, 3, 16]
000000 98 b6 4a b2 ec 34 12 38 05 29 11 b4 41 31 3b 2f
       -0.412 -0.1965 0.3076 0.509 0.0392 -0.2542 0.1642 0.113
000010 ad b0 f5 33 81 9c bb b2 3a b3 82 b1 86 b8 fb 34
       -0.1461 0.2487 -0.0044 -0.2103 -0.2258 -0.1721 -0.5654 0.3113
000020 29 b0 a3 b7 31 36 19 31 ef 2c a7 36 4d b2 c0 b4
       -0.13 -0.4773 0.387 0.1593 0.0771 0.4158 -0.1969 -0.2969
000030 7d 38 47 ae 0b b7 85 b7 2e b7 06 29 bc 18 26 34
       0.561 -0.0981 -0.4402 -0.47 -0.4487 0.03925 0.002312 0.2593
000040 2c 38 85 b7 0c 36 30 b6 1a 2a 2b b3 f3 b4 5c 37
       0.5215 -0.47 0.378 -0.3867 0.04767 -0.224 -0.3093 0.46
000050 af 2d 21 b4 fc b5 3a b8 56 28 53 2d 20 26 57 b6
       0.0888 -0.258 -0.374 -0.5283 0.03387 0.0832 0.02393 -0.3962
000060 31 30 ad b3 3f b4 54 24 53 b7 f0 a9 e8 2e 6b 2b
       0.131 -0.2399 -0.2654 0.0169 -0.4578 -0.0464 0.1079 0.05795
000070 73 38 c7 b6 87 38 6a aa ee b5 9a 35 b9 b7 70 38
       0.556 -0.4236 0.566 -0.0501 -0.3706 0.35 -0.4827 0.5547
000080 2c 9f dc b3 9e b8 87 1c 40 b6 50 b7 da 32 88 b5
       -0.007004 -0.2456 -0.577 0.00442 -0.3906 -0.457 0.2141 -0.3457
000090 e3 ab 05 37 24 b6 19 a1 90 33 ca 22 7d b8 8d 34
       -0.0616 0.4387 -0.3838 -0.00996 0.2363 0.01326 -0.561 0.2844
0000a0 fc 37 78 b8 08 37 4a b6 79 b4 1e b8 d9 b4 6c 37
       0.499 -0.5586 0.4395 -0.393 -0.2795 -0.5146 -0.303 0.4639
0000b0 cb a2 ca b3 cb 2f 48 2f de 2a a0 30 34 34 ce 34
       -0.01327 -0.2434 0.12177 0.1138 0.05365 0.1445 0.2627 0.3003
0000c0 d3 36 93 b7 d1 36 cb aa 31 28 2d b7 6b 30 93 b5
       0.4265 -0.4734 0.426 -0.05307 0.03275 -0.4485 0.1381 -0.3484
0000d0 ba a6 c1 32 46 af 28 38 9c 32 14 38 73 b8 1d 33
       -0.02628 0.211 -0.11365 0.5195 0.2065 0.51 -0.556 0.2223
0000e0 c6 2f 8a 2c 0d b8 dc 1b 3b 35 a0 b0 05 b6 4e b0
       0.12146 0.0709 -0.5063 0.003838 0.327 -0.1445 -0.3762 -0.1345
0000f0 5f 34 6b 38 66 2d 2b b8 ae 35 00 36 55 ad 8b 35
       0.2732 0.5522 0.08435 -0.521 0.355 0.375 -0.0833 0.3464
000100 dc 1c 50 33 9d 38 a4 ac 6f b5 14 36 fa ab df 37
       0.004745 0.2285 0.5767 -0.0725 -0.3396 0.38 -0.06232 0.492
000110 b8 35 f0 a4 ca af f5 b7 3e 34 d5 b6 be 37 90 b8
       0.3574 -0.01929 -0.1217 -0.4973 0.2651 -0.427 0.484 -0.5703
000120 69 b2 70 34 d5 37 57 33 03 b7 46 36 73 35 33 2e
       -0.2003 0.2773 0.4895 0.2294 -0.4382 0.392 0.3406 0.09686
000130 6f 35 d2 b7 7c b6 b0 b7 d3 33 2b b4 2a b3 7e 38
       0.3396 -0.4888 -0.4053 -0.4805 0.2445 -0.2605 -0.2239 0.5615
000140 d1 31 1a ad 33 38 5a b4 f3 34 ea b4 6a 38 3a b8
       0.1818 -0.0797 0.525 -0.272 0.3093 -0.3071 0.552 -0.5283
000150 84 b3 83 24 88 b7 4b b6 69 38 22 34 f8 af 70 b6
       -0.2349 0.01762 -0.4707 -0.3933 0.5513 0.2583 -0.1245 -0.4023
000160 16 37 6e 2c 64 32 61 b5 2e 34 8f b6 57 34 a0 b5
       0.4429 0.0692 0.1997 -0.3362 0.2612 -0.41 0.2712 -0.3516
000170 d3 b1 4d b7 63 b3 73 29 92 b5 b8 37 93 2a 59 b8
       -0.182 -0.4563 -0.2308 0.04257 -0.3481 0.4824 0.05136 -0.5435
000180 d9 35 9c 30 d9 ac 0d 36 3b b7 59 b4 ed 34 9c a1
       0.3655 0.144 -0.07574 0.3782 -0.452 -0.2717 0.3079 -0.010956
000190 52 32 1e 32 a7 2c 85 af 1f b8 12 b8 aa ae 36 b7
       0.1975 0.1912 0.0727 -0.1175 -0.515 -0.509 -0.1041 -0.4507
0001a0 e2 b6 a3 b5 43 b8 9e 37 f1 b7 3b ad ee 33 24 b3
       -0.4302 -0.3523 -0.5327 0.476 -0.4963 -0.0817 0.2478 -0.2231
0001b0 04 36 49 b8 3e 34 c6 30 4b 38 95 22 3c 35 c2 35
       0.376 -0.5356 0.2651 0.1492 0.5366 0.012856 0.3271 0.3599
0001c0 37 b6 f0 b0 03 37 69 ad c5 b3 28 34 56 31 7e b6
       -0.3884 -0.1543 0.4382 -0.08453 -0.2428 0.2598 0.1667 -0.4058
0001d0 e6 b3 5e b7 ba 31 31 35 2d 31 78 30 6a b6 6a 12
       -0.2468 -0.4604 0.179 0.3245 0.1617 0.1396 -0.401 0.000783
0001e0 96 ae 11 b7 2e 38 7a 27 39 35 1b b5 a4 af b7 2a
       -0.1029 -0.4417 0.5225 0.0292 0.3264 -0.319 -0.1194 0.05246
0001f0 ca 2e c6 b7 cf 31 3f 2d d8 b6 77 34 16 35 b1 31
       0.1061 -0.4858 0.1815 0.082 -0.4277 0.279 0.3179 0.1779
