output/experiment/models/model_tf/model_float32.tflite (tflite, 257388 bytes, 11 tensors)

arith.constant f4 [16, 3, 3, 16]
0	0xbed30732	-0.41216427
1	0xbe4934d7	-0.19649063
2	0x3e9d74fc	0.30753314
3	0x3f024dfa	0.5090023
4	0x3d20a6b0	0.039221466
5	0xbe822d87	-0.2542536
6	0x3e282c09	0.16423048
7	0x3de7559f	0.11295628
8	0xbe15983a	-0.14608851
9	0x3e7ea0e1	0.24866058
10	0xbb901d13	-0.004397997
11	0xbe57619c	-0.21033329
12	0xbe674c42	-0.22587684
13	0xbe303892	-0.1720908
14	0xbf10c1ce	-0.5654572
15	0x3e9f6b25	0.31136432
16	0xbe0525d0	-0.13002706
17	0xbef45b76	-0.4772603
18	0x3ec61972	0.38691288
19	0x3e231045	0.15924175
20	0x3d9dec5a	0.07711096
21	0x3ed4d27c	0.41566837
22	0xbe499d12	-0.19688824
23	0xbe9803c8	-0.29690385
24	0x3f0fa52c	0.5611141
25	0xbdc8d123	-0.09805515
26	0xbee1534f	-0.44008872
27	0xbef0af19	-0.4700859
28	0xbee5b479	-0.44864252
29	0x3d20b24f	0.03923255
30	0x3b17835a	0.0023119063
31	0x3e84c2de	0.25929922
32	0x3f058944	0.52162576
33	0xbef09dbb	-0.4699534
34	0x3ec17704	0.37786114
35	0xbec5fa7c	-0.38667667
36	0x3d4348f1	0.047676984
37	0xbe656bda	-0.22404423
38	0xbe9e5467	-0.3092377
39	0x3eeb8d18	0.46006083
40	0x3db5e1e0	0.08880973
41	0xbe8416fa	-0.2579878
42	0xbebf715c	-0.37391174
43	0xbf074b5f	-0.5284938
44	0x3d0ab936	0.033868037
45	0x3daa6273	0.08319559
46	0x3cc3f7bc	0.02392184
47	0xbecad9f1	-0.396194
48	0x3e062b7a	0.13102522
49	0xbe759bda	-0.23985234
50	0xbe87d964	-0.26533043
51	0x3c8a77b0	0.016902775
52	0xbeea5620	-0.45768833
53	0xbd3df61d	-0.04637729
54	0x3ddcfa7a	0.10789962
55	0x3d6d5e2c	0.057951137
56	0x3f0e6260	0.5561886
57	0xbed8ef27	-0.4236996
58	0x3f10de1d	0.5658892
59	0xbd4d3b68	-0.050105482
60	0xbebdbe6d	-0.37059346
61	0x3eb331e4	0.34999
62	0xbef72170	-0.48267698
63	0x3f0df769	0.5545564
64	0xbbe58afe	-0.0070050946
65	0xbe7b750f	-0.24556373
66	0xbf13b635	-0.576999
67	0x3b90dcc0	0.0044208467
68	0xbec7f888	-0.39056802
69	0xbeea0bb6	-0.4571206
70	0x3e5b418c	0.21411723
71	0xbeb0fc87	-0.34567663
72	0xbd7c6a4e	-0.061624818
73	0x3ee09e41	0.43870738
74	0xbec47fed	-0.3837885
75	0xbc232c86	-0.009959346
76	0x3e71fb31	0.23630978
77	0x3c5943a0	0.013260752
78	0xbf0fa579	-0.56111866
79	0x3e919192	0.28431374
80	0x3eff88d2	0.49909073
81	0xbf0f06e3	-0.55869883
82	0x3ee1069a	0.4395035
83	0xbec94331	-0.39309075
84	0xbe8f1396	-0.2794463
85	0xbf03bafd	-0.51457196
86	0xbe9b265a	-0.30302697
87	0x3eed8d76	0.4639699
88	0xbc596567	-0.013268805
89	0xbe7939d4	-0.24338466
90	0x3df95aeb	0.12175544
91	0x3de8f9ae	0.113757476
92	0x3d5bc624	0.05365576
93	0x3e13ff3f	0.14452837
94	0x3e867979	0.2626455
95	0x3e99c493	0.30032787
96	0x3eda610d	0.4265217
97	0xbef26910	-0.4734578
98	0x3eda142e	0.4259352
99	0xbd596f12	-0.05308444
100	0x3d062001	0.032745365
101	0xbee5ac6b	-0.44858107
102	0x3e0d635a	0.13807431
103	0xbeb266eb	-0.34844145
104	0xbcd73867	-0.026272012
105	0x3e582f54	0.21111804
106	0xbde8be09	-0.11364371
107	0x3f04f3d6	0.51934564
108	0x3e538331	0.20655514
109	0x3f027a0a	0.50967467
110	0xbf0e6ca0	-0.556345
111	0x3e639928	0.22226393
112	0x3df8b7d1	0.12144435
113	0x3d9136ad	0.07090507
114	0xbf01af9b	-0.5065858
115	0x3b7b8e7a	0.0038384483
116	0x3ea76251	0.32692197
117	0xbe13f025	-0.14447077
118	0xbec0a181	-0.37623218
119	0xbe09c6bf	-0.13454722
120	0x3e8bd1ae	0.2730841
121	0x3f0d5eab	0.55222577
122	0x3dacce32	0.08437766
123	0xbf05595f	-0.52089494
124	0x3eb5bd93	0.35496196
125	0x3ec009ae	0.37507385
126	0xbdaaae7b	-0.08334061
127	0x3eb15fd0	0.34643412
128	0x3b9b7a54	0.0047448073
129	0x3e6a054c	0.22853583
130	0x3f13a93f	0.57680124
131	0xbd9487aa	-0.07252438
132	0xbeaddc1d	-0.33956996
133	0x3ec28d85	0.37998596
134	0xbd7f436c	-0.062320158
135	0x3efbddc4	0.4919263
136	0x3eb709c6	0.35749644
137	0xbc9df904	-0.019283779
138	0xbdf936de	-0.12168668
139	0xbefe9cd4	-0.49729025
140	0x3e87b872	0.26507908
141	0xbeda9d60	-0.42698193
142	0x3ef7cea0	0.4839983
143	0xbf11ff3a	-0.5703007
144	0xbe4d28c0	-0.20035076
145	0x3e8e0176	0.2773549
146	0x3efaab27	0.48958704
147	0x3e6ae129	0.22937454
148	0xbee05060	-0.4381132
149	0x3ec8c1d7	0.39210388
150	0x3eae540b	0.34048495
151	0x3dc650dc	0.096833915
152	0x3eadd918	0.33954692
153	0xbefa33c9	-0.48867634
154	0xbecf722c	-0.40516794
155	0xbef5f57a	-0.48038846
156	0x3e7a6104	0.24451071
157	0xbe855779	-0.260433
158	0xbe654b40	-0.22391987
159	0x3f0fb4b2	0.56135094
160	0x3e3a2c5a	0.18180981
161	0xbda3414f	-0.07971441
162	0x3f066926	0.52504194
163	0xbe8b3535	-0.2718903
164	0x3e9e6fdf	0.30944726
165	0xbe9d4aa4	-0.3072101
166	0x3f0d4965	0.55190116
167	0xbf07473c	-0.5284307
168	0xbe70771f	-0.23482941
169	0x3c90668b	0.017627021
170	0xbef0f0a0	-0.47058582
171	0xbec96e20	-0.3934183
172	0x3f0d22b9	0.5513111
173	0x3e843a46	0.2582571
174	0xbdfef920	-0.124498606
175	0xbece083c	-0.40240657
176	0x3ee2c12f	0.44288012
177	0x3d8dc314	0.06921974
178	0x3e4c7958	0.19968164
179	0xbeac1a90	-0.33614016
180	0x3e85b0f2	0.2611156
181	0xbed1df35	-0.40990606
182	0x3e8ada11	0.27119496
183	0xbeb3f651	-0.35148862
184	0xbe3a6c0a	-0.18205276
185	0xbee9a3fc	-0.45632923
186	0xbe6c570b	-0.2308008
187	0x3d2e5b85	0.04256775
188	0xbeb23d5c	-0.34812438
189	0x3ef6ffc7	0.48242018
190	0x3d52537d	0.051349152
191	0xbf0b267c	-0.543556
192	0x3ebb1b92	0.36544472
193	0x3e138974	0.14407903
194	0xbd9b16b3	-0.07572689
195	0x3ec1a114	0.37818205
196	0xbee75676	-0.45183152
197	0xbe8b17df	-0.2716665
198	0x3e9d9066	0.3077423
199	0xbc338850	-0.010957792
200	0x3e4a321e	0.1974568
201	0x3e43b38e	0.19111463
202	0x3d94e22a	0.072697
203	0xbdf09602	-0.11747362
204	0xbf03df3a	-0.5151249
205	0xbf0246e7	-0.5088944
206	0xbdd534a7	-0.10410433
207	0xbee6b98f	-0.45063445
208	0xbedc4f96	-0.4302947
209	0xbeb45c26	-0.35226554
210	0xbf086abd	-0.5328787
211	0x3ef3cb88	0.4761622
212	0xbefe1212	-0.49623162
213	0xbda75d90	-0.081721425
214	0x3e7db9a3	0.24777846
215	0xbe6475a6	-0.22310504
216	0x3ec0798d	0.37592736
217	0xbf091713	-0.53550833
218	0x3e87b656	0.265063
219	0x3e18ccd1	0.14921881
220	0x3f0965d1	0.53670985
221	0x3c52ac54	0.012858469
222	0x3ea77557	0.3270671
223	0x3eb847a7	0.35992166
224	0xbec6e536	-0.3884675
225	0xbe1dfb8b	-0.15427987
226	0x3ee05e4b	0.4382194
227	0xbdad2a9b	-0.08455392
228	0xbe789fe9	-0.24279751
229	0x3e850d0a	0.2598651
230	0x3e2aca92	0.16678837
231	0xbecfb133	-0.4056488
232	0xbe7cb29e	-0.24677512
233	0xbeebb441	-0.4603596
234	0x3e3740fe	0.17895886
235	0x3ea62aff	0.32454678
236	0x3e259a87	0.16172229
237	0x3e0ef33c	0.13959974
238	0xbecd4d81	-0.40098193
239	0x3a4d43d9	0.00078302395
240	0xbdd2be27	-0.10290175
241	0xbee21cc2	-0.44162565
242	0x3f05bb02	0.52238476
243	0x3cef4c4f	0.029211191
244	0x3ea7235e	0.3264417
245	0xbea36745	-0.31914726
246	0xbdf47beb	-0.11937698
247	0x3d56da02	0.052454002
248	0x3dd9472a	0.106092766
249	0xbef8b6d9	-0.48577002
250	0x3e39de23	0.18151145
251	0x3da7d98c	0.08195791
252	0xbedb010f	-0.42774245
253	0x3e8ee383	0.27907953
254	0x3ea2b056	0.3177516
255	0x3e3623df	0.17787121

arith.constant1 f4 [16, 3, 3, 64]
0	0xbe9de09f	-0.30835435
1	0x3eaba71c	0.33525932
2	0xbe28b032	-0.16473463
3	0x3b367e4f	0.0027846282
4	0x3e81c427	0.25344965
5	0xbd9b7a80	-0.075917244
6	0x3e9c179b	0.3048676
7	0x3eb8575c	0.3600415
8	0xbe60c9b9	-0.21951951
9	0xbd8b4698	-0.06800574
10	0xbd871cb6	-0.06597273
11	0x3e09e693	0.13466863
12	0xbe927c57	-0.2861049
13	0xbeaab4d1	-0.33341077
14	0xbe28d241	-0.16486456
15	0x3e387c45	0.18016155
16	0xbe9d6f7e	-0.30749124
17	0xbe502b24	-0.20328957
18	0xbda7772c	-0.08177027
19	0x3e697ea0	0.2280221
20	0x3e855f3e	0.26049227
21	0x3e8c27f2	0.27374226
22	0xbda9a511	-0.08283437
23	0xbdc0255f	-0.09382128
24	0x3bf792da	0.007555348
25	0xbeb00936	-0.34382027
26	0xbdcdaa00	-0.100421906
27	0x3dd354fb	0.10318943
28	0xbe47f1ef	-0.19525884
29	0xbc2d0934	-0.010561276
30	0x3e97f9ce	0.29682773
31	0x3e1c613b	0.15271465
32	0x3d99148e	0.074746236
33	0xbe7ab7ae	-0.2448413
34	0x3c9f2a3f	0.019429324
35	0xbea88758	-0.3291576
36	0x3e71ebc9	0.23625101
37	0xbe728c27	-0.23686276
38	0x3e97dfaf	0.29662845
39	0xbd4faff0	-0.050704896
40	0x3e2fda81	0.17173196
41	0xbe99bb07	-0.30025503
42	0xbdeeebd9	-0.11666078
43	0x3eb2b613	0.34904537
44	0x3e161903	0.14657979
45	0xbd9e181d	-0.07719443
46	0x3e941a6a	0.28926402
47	0x3d719891	0.05898339
48	0xbdae33a5	-0.08505944
49	0xbe7aebd4	-0.24504024
50	0x3e68747b	0.22700684
51	0x3e6493ce	0.22322008
52	0xbeaec4d6	-0.3413455
53	0xbdec2dac	-0.11532149
54	0xbe129885	-0.14315994
55	0xbea81bfa	-0.32833844
56	0xbeb7b83f	-0.35882756
57	0x3e984164	0.2973739
58	0xbea08afd	-0.3135604
59	0x3d6be924	0.057595387
60	0x3e763296	0.24042735
61	0xbe9c811a	-0.30567247
62	0xbe5f682f	-0.21817087
63	0xbe89206e	-0.26782554
64	0xbe83d3d0	-0.25747538
65	0x3cda7e26	0.02667148
66	0x3e0d3ec9	0.13793482
67	0x3e58e8eb	0.21182601
68	0xbd17aba1	-0.037028912
69	0xbe2e5ac9	-0.1702682
70	0xbeaea529	-0.34110382
71	0xbe8244a2	-0.25442988
72	0x3e9124a9	0.28348282
73	0x3e64f111	0.22357585
74	0xbe2b166d	-0.16707774
75	0xbd48c069	-0.04901162
76	0x3e3b6370	0.18299651
77	0xbe7a76af	-0.24459337
78	0xbeb1e5ed	-0.34745732
79	0x3cc9327a	0.024560202
80	0x3e0c9dc4	0.13732058
81	0x3d99fa3b	0.07518431
82	0x3e933d98	0.2875793
83	0xbe31e591	-0.17372729
84	0xbdd95275	-0.106114306
85	0x3eb3a4ff	0.3508682
86	0x3e58d15e	0.21173617
87	0xbe0bcc12	-0.13652065
88	0xbe3a029a	-0.18165055
89	0xbe79160d	-0.24324818
90	0x3e629d00	0.22130203
91	0xbeb91c4a	-0.36154395
92	0x3eb54e0a	0.35411102
93	0xbeaf1678	-0.3419683
94	0xbe0863a1	-0.13319255
95	0xbdb018e0	-0.085984945
96	0xbe34f951	-0.17673232
97	0x3df488b3	0.11940136
98	0x3e83174a	0.25603706
99	0xbddbb795	-0.10728375
100	0xbcd6b0f2	-0.026207421
101	0x3e94a781	0.29034045
102	0x3e4b1b3c	0.19834608
103	0xbc134ff8	-0.008991234
104	0x3e98abc6	0.29818553
105	0x3e6aa061	0.22912742
106	0x3ea0360d	0.31291237
107	0xbe826d53	-0.25474033
108	0xbe785eec	-0.2425496
109	0x3ea70ba8	0.3262608
110	0xbe2df0cd	-0.1698639
111	0x3ea58180	0.32325363
112	0x3e03240a	0.12806717
113	0x3e36a5e2	0.17836717
114	0xbce53ab3	-0.027982092
115	0x3e122322	0.14271215
116	0x3e9f8a5c	0.31160247
117	0xbdbe54d6	-0.09293525
118	0x3eb65ecb	0.35619196
119	0xbe51aa3f	-0.204751
120	0xbe0e682f	-0.1390693
121	0xbd831c8b	-0.064019285
122	0xbdf16cba	-0.11788316
123	0xbd201f88	-0.03909257
124	0xbd6eeb99	-0.058330152
125	0xbc122ec6	-0.0089222845
126	0xbe886138	-0.26636672
127	0xbe8c571e	-0.27410215
128	0x3e0a308a	0.13495079
129	0xbe916dcf	-0.2840409
130	0xbdf93263	-0.12167814
131	0x3dfa9544	0.122355014
132	0xbd87fce9	-0.06640036
133	0xbe2e551d	-0.17024656
134	0xbdbc29b2	-0.0918764
135	0x3e093e32	0.13402632
136	0x3ea7e786	0.32793826
137	0xbeb21187	-0.34778997
138	0x3e8c96da	0.2745884
139	0xbea7d310	-0.32778215
140	0xbd961adc	-0.07329342
141	0x3d785100	0.060624123
142	0x3e866a03	0.26252756
143	0xbe24e29f	-0.16102074
144	0x3ea9b90e	0.33148998
145	0x3e354937	0.1770371
146	0xbd9175df	-0.0710256
147	0x3d6b89ca	0.057504453
148	0xbe8cfb57	-0.27535507
149	0x3d9092c1	0.07059241
150	0xbe0948ba	-0.13406649
151	0x3dd9ccab	0.106347404
152	0x3e97a211	0.29615834
153	0x3c5a673d	0.013330278
154	0xbe5e7ec0	-0.21728039
155	0x3e7741ea	0.24146238
156	0xbe358e7f	-0.17730139
157	0xbea1c3ca	-0.31594688
158	0x3de57015	0.112030186
159	0xbc825774	-0.015910842
160	0x3c8c77b9	0.017146932
161	0x3eb4558f	0.35221526
162	0xbe217656	-0.15767798
163	0xbe4a99a2	-0.19785169
164	0x3e67fa56	0.2265409
165	0xbeabe817	-0.33575508
166	0xbd1bfb49	-0.03808144
167	0x3e11e96b	0.14249198
168	0xbd960248	-0.07324654
169	0x3e24f212	0.16107967
170	0xbcbb1947	-0.022839202
171	0xbead5b48	-0.33858705
172	0x3e49dc94	0.1971305
173	0xbeb87e87	-0.36034033
174	0x3e55387a	0.20822325
175	0xbeb09e6b	-0.34495863
176	0xbd473c72	-0.04864163
177	0x3e14ecfc	0.14543527
178	0x3e0de53b	0.13856976
179	0x3df07669	0.11741335
180	0x3d413b39	0.04717562
181	0xbc014397	-0.00788965
182	0xbe32814d	-0.17432137
183	0x3dcd9166	0.10037498
184	0x3dfcc020	0.123413324
185	0x3eab3500	0.33438873
186	0xbe9908f6	-0.2988965
187	0xbeb0ef98	-0.34557796
188	0xbe828d13	-0.25498256
189	0xbeae3430	-0.3402419
190	0x3e82a3f6	0.25515717
191	0xbdd89ca3	-0.10576751
192	0xbe2686a1	-0.16262294
193	0x3eae71b5	0.34071127
194	0x3e03bf86	0.12866029
195	0x3e46b549	0.19405092
196	0x3e33967e	0.17537877
197	0x3eaa75da	0.3329304
198	0x3eb66ccb	0.35629877
199	0xbe4dade8	-0.20085871
200	0x3eb845c3	0.35990724
201	0x3cdc5d0b	0.026899835
202	0x3ea33ee0	0.31883907
203	0x3e1c88b0	0.15286517
204	0xbeba29cd	-0.36360016
205	0xbe70952d	-0.23494406
206	0x3ea36f14	0.31920683
207	0x3e18f4b2	0.14937094
208	0x3eb0687e	0.3445472
209	0xbd6eab03	-0.05826856
210	0xbdbdf785	-0.09275726
211	0x3e4355ff	0.19075774
212	0xbe113de4	-0.14183766
213	0x3e415246	0.18879041
214	0x3c493851	0.012281493
215	0xbd016035	-0.03158589
216	0xbd6b3e34	-0.05743237
217	0x3e3b5a17	0.18296085
218	0x3e6ffebc	0.23437017
219	0x3d5469ce	0.051858716
220	0x3e08b457	0.13350044
221	0xbda3bfbc	-0.07995555
222	0xbd5e88a8	-0.054329544
223	0xbe09bd07	-0.13451014
224	0xbe2b93db	-0.16755621
225	0xbe39c0e3	-0.18139987
226	0xbdd4f9a6	-0.10399179
227	0xbe152b9e	-0.1456742
228	0x3e8fa77c	0.28057468
229	0xbcbc6679	-0.022998082
230	0xbeab643d	-0.33474913
231	0x3e43d777	0.19125162
232	0x3e93bf00	0.2885666
233	0x3e9a85d1	0.3018022
234	0x3e96cda2	0.2945376
235	0xbd9fef0a	-0.07809265
236	0xbe94b398	-0.2904327
237	0xbe90dc8e	-0.2829327
238	0xbe4408ba	-0.19143954
239	0x3ea0678c	0.31329
240	0x3d95f8db	0.07322856
241	0x3eb9b72e	0.36272568
242	0xbe989d48	-0.29807496
243	0x3e425d75	0.18980964
244	0x3dfe4bcf	0.12416803
245	0xbdc5b31d	-0.09653304
246	0xbe533e8c	-0.20629328
247	0xbe29f411	-0.1659701
248	0x3cb3176f	0.02186176
249	0x3e5bec1f	0.21476792
250	0x3d83c21e	0.06433509
251	0xbe1be627	-0.15224515
252	0x3e0c5289	0.1370336
253	0xbe66bfc0	-0.22534084
254	0x3e70a0f3	0.23498897
255	0x3eb66c92	0.35629708

arith.constant2 f4 [64, 3, 3, 16]
0	0xbeb06f23	-0.3445979
1	0x3d4b6334	0.049655154
2	0xbe5a4201	-0.21314241
3	0x3e2880b1	0.16455342
4	0xbe82a75f	-0.2551832
5	0x3e9d9cba	0.30783635
6	0xbe88cdd0	-0.26719522
7	0x3e99e0be	0.30054277
8	0xbeac3a2d	-0.33638135
9	0xbd43a1f3	-0.04776187
10	0x3db9dd7e	0.090754494
11	0xbe3cfe7a	-0.1845645
12	0xbe323fd1	-0.17407157
13	0x3e9a6347	0.30153868
14	0xbcb42475	-0.02199004
15	0xbe8df441	-0.27725413
16	0x3d9a66ee	0.075391635
17	0x3c02feb1	0.0079952935
18	0x3db1bc3a	0.086784795
19	0xbddd459d	-0.10804293
20	0x3e2ba949	0.16763796
21	0xbe79e8db	-0.24405234
22	0xbbff4df1	-0.0077912738
23	0xbdc26c24	-0.094932824
24	0x3e22642a	0.15858522
25	0xbd32c14e	-0.04364138
26	0x3e9b54c8	0.3033812
27	0x3b8b595b	0.0042525954
28	0x3c83c067	0.016082956
29	0x3e91131f	0.283349
30	0xbe665f00	-0.22497177
31	0x3e7ce68c	0.24697322
32	0x3e1bc027	0.15210019
33	0xbdfcb835	-0.12339822
34	0x3dc65061	0.096833
35	0x3e2b7d86	0.16747102
36	0x3e2ed3fa	0.1707305
37	0x3d00de89	0.031462226
38	0xbd307144	-0.04307677
39	0xbeaa0231	-0.33204797
40	0x3e3290a9	0.17437996
41	0x3e04fa42	0.12986091
42	0x3eb87273	0.36024818
43	0xbca4272a	-0.020038206
44	0x3e8fd939	0.28095415
45	0xbeab6b5c	-0.33480346
46	0xbe16e499	-0.1473564
47	0x3e7b2a7f	0.2452793
48	0xbea97fb5	-0.33105245
49	0xbd8b2f46	-0.06796126
50	0xbe9af17c	-0.30262363
51	0xbe962aba	-0.29329473
52	0x3e8db588	0.2767756
53	0xbd400d3f	-0.046887632
54	0xbd6fc76a	-0.058539785
55	0xbcb9bf93	-0.022674358
56	0xbe2260b7	-0.15857206
57	0x3e8d8cbd	0.27646437
58	0xbe2d616c	-0.16931695
59	0xbe98f8cf	-0.29877326
60	0x3e8de01a	0.27710038
61	0x3e376aa9	0.17911781
62	0xbdce606a	-0.10076983
63	0x3d8acaed	0.06776986
64	0x3e3482b0	0.17627978
65	0x3d6b3b48	0.057429582
66	0x3e1d19e3	0.15341906
67	0xbea3c99b	-0.3198975
68	0x3dade214	0.084903866
69	0xbe4c3d24	-0.19945198
70	0x3e4a7b04	0.19773489
71	0x3e45ad5f	0.19304417
72	0x3e2489c7	0.16068183
73	0xbea7d795	-0.32781664
74	0xbeaa534b	-0.33266672
75	0xbe950735	-0.2910706
76	0x3e07f151	0.13275649
77	0x3e098719	0.13430442
78	0x3ea6c7af	0.32574221
79	0x3eaad2ed	0.3336405
80	0x3e56e72b	0.20986621
81	0x3d9e1923	0.07719638
82	0xbce7ec48	-0.02831091
83	0xbdd21759	-0.102583595
84	0xbce3e994	-0.02782134
85	0xbd5f4a81	-0.05451441
86	0xbe49cbb9	-0.1970662
87	0xbd87c894	-0.06630054
88	0xbeaa12b0	-0.33217382
89	0x3e671bad	0.22569151
90	0x3e44c88d	0.19217129
91	0xbe16d651	-0.14730193
92	0x3ccabf34	0.024749376
93	0xbddcf9c7	-0.10789829
94	0xbe106882	-0.14102367
95	0x3ea3e8eb	0.3201364
96	0x3ea6635c	0.3249768
97	0x3e61f95e	0.22067782
98	0x3d063e74	0.032774404
99	0xbe6e99f1	-0.23300911
100	0xbe6d1cdd	-0.23155542
101	0x3e4a38bb	0.19748203
102	0xbdba581d	-0.090988375
103	0x3e43a371	0.19105317
104	0x3eac9d99	0.33713987
105	0xbe645725	-0.22298868
106	0xbdc42e9f	-0.09579205
107	0xbd6d859e	-0.057988755
108	0x3e360d89	0.17778601
109	0xbe8df27c	-0.27724063
110	0xbea104eb	-0.31449065
111	0x3af26f3a	0.0018496283
112	0x3e1a16b6	0.15047726
113	0x3c43786a	0.011930564
114	0xbda1a1d0	-0.078921914
115	0x3d8d5c08	0.06902319
116	0x3da0e4f0	0.07856166
117	0xbeb57a2a	-0.35444766
118	0xbea597c3	-0.32342348
119	0x3e50b2d4	0.20380718
120	0x3c309524	0.010777745
121	0xbd9b2aa0	-0.075764894
122	0x3cb0c528	0.021578386
123	0xbe83ee34	-0.25767672
124	0xbe067652	-0.13131073
125	0x3d6587fa	0.05603788
126	0x3e894b41	0.26815227
127	0xbc3294e5	-0.010899757
128	0x3e767b57	0.24070488
129	0x3ea2ac79	0.3177221
130	0xbdead2ab	-0.11465963
131	0xbe7f0816	-0.24905428
132	0x3dc0a515	0.09406487
133	0x3d592978	0.053018063
134	0x3d03f6d0	0.0322178
135	0x3eacec60	0.3377409
136	0x3d3b3565	0.045705218
137	0xbd46debd	-0.048552264
138	0xbe097da7	-0.13426839
139	0xbce9904a	-0.028511185
140	0xbe67ea86	-0.22648057
141	0x3e1af536	0.15132603
142	0xbcbb129d	-0.022836024
143	0x3c1a7bed	0.00942896
144	0x3e0d2646	0.13784131
145	0x3e5012d9	0.2031969
146	0x3e4f32fa	0.2023429
147	0x3b576a9f	0.0032869948
148	0x3e725019	0.23663367
149	0x3decc396	0.115607426
150	0xbd7eb140	-0.062180758
151	0xbe2a6a8e	-0.1664221
152	0xbd7ec8cd	-0.062203217
153	0xbe9706d8	-0.2949741
154	0xbe7b0ed9	-0.24517383
155	0x3eba48f7	0.36383793
156	0xbdf1b19a	-0.11801453
157	0x3e8c12ba	0.27358037
158	0x3d797411	0.060901705
159	0x3d92f2ca	0.071752146
160	0xbeac0d04	-0.3360368
161	0xbe633ed3	-0.22191934
162	0xbd234092	-0.0398565
163	0xbc80543c	-0.015665166
164	0xbe76b583	-0.24092679
165	0xbcc4d566	-0.024027538
166	0xbe53bd9b	-0.20677797
167	0xbd7cf6ec	-0.06175892
168	0x3e95b5b1	0.29240182
169	0xbe666260	-0.22498465
170	0xbea02dfd	-0.31285086
171	0xbe699081	-0.2280903
172	0x3e691a7f	0.22764014
173	0xbe070d60	-0.13188696
174	0x3e7aa716	0.244778
175	0x3e38df51	0.18053938
176	0x3e33a5e3	0.1754375
177	0xbeb00048	-0.34375215
178	0x3cdbed4e	0.026846554
179	0xbd93b821	-0.07212854
180	0x3d84d6df	0.06486296
181	0x3eaf14d8	0.3419559
182	0x3e90645a	0.28201562
183	0xbea29536	-0.31754464
184	0xbdfdfb28	-0.1240142
185	0x3e94d5fe	0.29069513
186	0xbe599259	-0.21247233
187	0x3d2266a1	0.039648656
188	0xbe223ef9	-0.15844335
189	0x3c29a6e5	0.010354732
190	0xbe8f67b4	-0.28008807
191	0xbdb720ea	-0.08941825
192	0x3e9794aa	0.2960561
193	0x3e1de607	0.1541978
194	0x3e973cab	0.29538473
195	0xbe78c578	-0.24294078
196	0xbdc252db	-0.0948846
197	0x3e5e89f2	0.2173231
198	0xbe5fe765	-0.21865614
199	0xbe5f6370	-0.21815276
200	0xbd644114	-0.055726126
201	0xbc6fed7b	-0.014644022
202	0x3eac636d	0.33669606
203	0x3dd82a93	0.105549954
204	0xbe9b93a2	-0.30386072
205	0x3e8ce8f0	0.27521467
206	0x3e0014ca	0.1250793
207	0xbe61703e	-0.22015473
208	0x3d2ebda6	0.04266133
209	0x3d97ac85	0.07405952
210	0xbe3128e7	-0.1730076
211	0xbca99a06	-0.020703327
212	0x3e6e7e54	0.23290378
213	0xbddf2ebb	-0.10897585
214	0xbeb10759	-0.34575918
215	0x3e6814a4	0.22664124
216	0xbe893570	-0.26798582
217	0x3eb85662	0.36003405
218	0x3e9f9603	0.31169137
219	0x3e262be9	0.16227688
220	0xbe12602c	-0.14294499
221	0xbe5535ba	-0.20821276
222	0xbe264b8e	-0.1623976
223	0x3e8a21e2	0.26978976
224	0x3e226e5a	0.15862408
225	0x3c91c527	0.017794205
226	0xbc212f62	-0.009837957
227	0xbe67f89d	-0.22653432
228	0xbe1de13d	-0.15417953
229	0x3d5354b5	0.051594455
230	0xbe8b31b7	-0.27186367
231	0x3e75a788	0.2398969
232	0xbccd1d14	-0.02503828
233	0xbe95b033	-0.29235992
234	0x3e83aa99	0.25716093
235	0x3eb9ee64	0.3631469
236	0x3e1c8aa4	0.15287262
237	0x3e0d0157	0.13770042
238	0x3e9a608a	0.30151778
239	0x3e7320f6	0.23743042
240	0xbe9061db	-0.28199658
241	0x3de8636f	0.113470905
242	0x3e8633e1	0.26211455
243	0xbeb2dddb	-0.34934887
244	0x3e18d1d0	0.14923787
245	0xbdc05367	-0.09390908
246	0x3e5d4b86	0.21610841
247	0xbeae253a	-0.34012777
248	0x3e151e04	0.14562231
249	0x3e20776e	0.15670559
250	0xbdccd63d	-0.100018
251	0x3e2bf124	0.16791207
252	0xbd9e4d6c	-0.07729611
253	0xbe41d11d	-0.18927427
254	0xbeb621c1	-0.35572627
255	0x3e97236c	0.29519212

arith.constant3 f4 [16, 3, 3, 8]
0	0x3bbb84ed	0.005722633
1	0xbdba2bf1	-0.090904124
2	0xbe2a979b	-0.16659395
3	0xbcc48176	-0.023987513
4	0x3dffe627	0.1249507
5	0x3d7f5782	0.062339313
6	0xbe0942ed	-0.13404436
7	0xbe233ae6	-0.15940437
8	0xbdc3dcce	-0.095635995
9	0x3d58b524	0.052907124
10	0x3cf77eba	0.030211795
11	0xbe0c4844	-0.13699442
12	0xbd525edb	-0.051359992
13	0x3ce01dcc	0.027357958
14	0xbd914a3e	-0.07094239
15	0x3e1438d2	0.144748
16	0xbe284923	-0.1643415
17	0xbd7ba858	-0.061439842
18	0xbdaf00f5	-0.085451044
19	0x3da0247e	0.0781946
20	0xbc9ead37	-0.019369705
21	0xbd5129c1	-0.05106521
22	0x3df5a7f5	0.11994926
23	0xbdda4e78	-0.10659498
24	0x3d3a7493	0.04552133
25	0xbddb02c8	-0.1069389
26	0x3db7ec3c	0.08980605
27	0x3e11d31b	0.14240687
28	0x3d0aa043	0.033844244
29	0xbd7a9d1e	-0.061184995
30	0x3c05acd4	0.008158881
31	0xbcd2bb86	-0.025724184
32	0xbe116380	-0.14198112
33	0x3d0b8a78	0.0340676
34	0xbb2ed3c7	-0.0026676522
35	0x3e141073	0.144594
36	0x3bfc4383	0.0076984777
37	0xbc843275	-0.016137341
38	0xbd383ebf	-0.044981714
39	0x3d83941d	0.06424735
40	0xbddaea1e	-0.106891856
41	0x3d25cd50	0.040479004
42	0x3d9af3d3	0.07566037
43	0xbdc2e8a8	-0.09517032
44	0xbdd3b916	-0.10338037
45	0xbda0417e	-0.07824992
46	0xbe03e544	-0.12880427
47	0xbdfa7991	-0.12230218
48	0x3e28c029	0.16479553
49	0x3e0295a1	0.12752391
50	0x3d8002e6	0.06250553
51	0x3ddea01a	0.10870381
52	0xbe198ce0	-0.14995146
53	0xbd955c1f	-0.07292961
54	0x3de59dcd	0.11211739
55	0x3da2559b	0.07926484
56	0x3d25f925	0.040520806
57	0x3dd2b4a6	0.10288362
58	0x3da160cb	0.0787979
59	0xbd65bae5	-0.05608644
60	0x3e111023	0.14166312
61	0x3e06643b	0.13124172
62	0x39824fd5	0.00024855012
63	0xbd618b3c	-0.055064425
64	0x3c33f5c5	0.010983889
65	0xbe0f1514	-0.13972884
66	0xbd907319	-0.07053203
67	0xbdd72ac7	-0.10506206
68	0xbe23a468	-0.15980685
69	0x3d24ecb0	0.040264785
70	0xbdf8d2dc	-0.12149593
71	0xbdebf9e6	-0.11522274
72	0x3d67dd0a	0.056607284
73	0xbe02972f	-0.12752984
74	0xbe29d488	-0.1658498
75	0xbda1eeee	-0.079069
76	0xbe16320e	-0.14667532
77	0x3e1d4b50	0.1536076
78	0x3ce005ac	0.027346455
79	0x3cb80cef	0.022467105
80	0xbcd7aed9	-0.026328491
81	0xbd956e0d	-0.07296381
82	0x3d922dbb	0.07137629
83	0xbdc61bb7	-0.09673255
84	0xbc7cd798	-0.015432261
85	0x3e21a8d3	0.15787058
86	0xbdc0af09	-0.09408385
87	0x3d961877	0.07328885
88	0xbc4af4a8	-0.012387432
89	0xbd15c86a	-0.036568083
90	0x3dd6f27c	0.10495469
91	0x3d991c24	0.074760705
92	0x3dbb0f8b	0.09133824
93	0xbd34deb0	-0.044157684
94	0x3ccef912	0.02526525
95	0x3e1605ef	0.14650701
96	0xbdb81202	-0.0898781
97	0xbe113c7f	-0.14183234
98	0x3dfd739b	0.123755656
99	0xba43c7c0	-0.0007468425
100	0xbe11bf52	-0.14233139
101	0x3e28fe25	0.16503198
102	0xbd72d5e0	-0.059286
103	0xbb689c5f	-0.0035493595
104	0x3dd797c1	0.10526992
105	0xbdeb28bb	-0.11482378
106	0x3dc8d66e	0.09806524
107	0xbdc336e0	-0.09531951
108	0xbe21d232	-0.1580284
109	0x3d8c40ca	0.06848295
110	0x3d726590	0.05917889
111	0x3dc29453	0.09500947
112	0xbd65c7e0	-0.05609882
113	0x3d6478f5	0.055779416
114	0x3dd65f0a	0.10467346
115	0xbdd488a0	-0.10377622
116	0xbd92372b	-0.07139429
117	0x3e0e2107	0.13879786
118	0x3da66847	0.08125358
119	0xbd0de811	-0.034645144
120	0x3e1ed52a	0.15511003
121	0x3dc3d2d0	0.09561694
122	0xbdbf1041	-0.09329272
123	0xbd96d282	-0.0736437
124	0xbe138957	-0.1440786
125	0x3df99b86	0.12187867
126	0x3e0e11e1	0.13874008
127	0x3d916bce	0.0710064
128	0x3df37d0b	0.118890844
129	0x3db60e77	0.08889478
130	0x3d50e4e1	0.050999526
131	0x3e0107a0	0.12600565
132	0x3e281b8c	0.16416758
133	0xbdce8a9f	-0.100850336
134	0xbb31301c	-0.0027036732
135	0xbd0148b1	-0.031563465
136	0xbe1a620f	-0.15076469
137	0xbc1c0b78	-0.009524219
138	0x3e0f3e61	0.1398864
139	0x3e1dd3cf	0.1541283
140	0xbdd6e7b1	-0.104934104
141	0xbda9adb6	-0.08285086
142	0xbd368b54	-0.044566467
143	0x3e25e736	0.16201481
144	0x3e0a66ea	0.13515821
145	0xbddbc1e0	-0.10730338
146	0xbdf2aa46	-0.11848883
147	0xbdd4db75	-0.103934206
148	0x3da101e6	0.0786169
149	0xbdec3eca	-0.115354136
150	0x3e045cb8	0.12925994
151	0xbda6ad21	-0.081384905
152	0x3d48da24	0.04903616
153	0x3e144aef	0.1448171
154	0x3d4a1079	0.049332116
155	0x3e173221	0.14765216
156	0x3d6d5df2	0.05795092
157	0x3e1f69ab	0.15567653
158	0xbdf2799e	-0.11839603
159	0x3b58aa0f	0.0033060347
160	0x3e17e032	0.14831617
161	0x3d0a046e	0.03369563
162	0x3cf02331	0.029313656
163	0x3b4bab13	0.003107731
164	0x3c78091a	0.015138889
165	0x3db8ef89	0.09030063
166	0xbd50f961	-0.051019076
167	0x3d0bb4b2	0.03410787
168	0x3e268d3c	0.16264814
169	0xbe11adca	-0.14226452
170	0xbd33e500	-0.043919563
171	0xbd981de9	-0.0742758
172	0x3dcd601d	0.10028098
173	0xbdb0c65c	-0.08631584
174	0xbc176d79	-0.009242409
175	0x3daa27f0	0.08308399
176	0x3d99631e	0.07489608
177	0x3d5aded3	0.053435158
178	0x3cde5d57	0.027144117
179	0xbd886223	-0.06659343
180	0xbd6711da	-0.05641351
181	0x3d8729e4	0.06599787
182	0xbdca1ae6	-0.09868412
183	0xbe19f518	-0.15034902
184	0xbd224be6	-0.039623164
185	0x3d6c8308	0.05774215
186	0xbde30e83	-0.11086752
187	0x3da2c5eb	0.07947906
188	0x3d07a5ee	0.033117227
189	0x3b6f3108	0.003649773
190	0x3d8758ec	0.066087574
191	0x3d8dc24c	0.06921825
192	0xbd3ee987	-0.046609428
193	0xbd3d5a48	-0.046228677
194	0xbd31d056	-0.043411575
195	0x3da7f8ac	0.08201727
196	0x3dcc8df3	0.09988012
197	0x3d104261	0.035219554
198	0xbdcf6187	-0.10126024
199	0xbc13aaa6	-0.009012854
200	0xbc32b01b	-0.010906245
201	0xba0a0d29	-0.0005266243
202	0xbdb75d0c	-0.08953294
203	0x3d4aa9be	0.049478285
204	0xbe29ff7a	-0.16601363
205	0x3cf5916f	0.029976575
206	0xbdf12961	-0.117754705
207	0x3c24beca	0.010055253
208	0x3917aa79	0.00014463988
209	0x3e11b40b	0.14228837
210	0xbd221301	-0.039568905
211	0x3ccd695d	0.025074655
212	0xbe12e473	-0.14344959
213	0xbe1442fd	-0.14478679
214	0xbe2435e5	-0.16036184
215	0xbd5316d1	-0.05153543
216	0xbd45735a	-0.04820571
217	0xbe1faed2	-0.15594032
218	0xbded31ea	-0.11581786
219	0x3d80d26c	0.06290135
220	0xbd117250	-0.035509408
221	0xbdc2d5c0	-0.09513426
222	0x3c926ec6	0.017875087
223	0xbda281f6	-0.07934944
224	0xbe0d8c98	-0.13823164
225	0xbd3f7967	-0.046746638
226	0xbd51d2db	-0.051226478
227	0xbdf24b6b	-0.11830791
228	0x3d94ffda	0.07275362
229	0x3db77d1f	0.08959412
230	0x3d977c51	0.07396758
231	0x3ddd19aa	0.10795911
232	0x3e0b89ac	0.13626736
233	0xbdadf5ea	-0.0849417
234	0x3d8d5c38	0.06902355
235	0xbd8ca3fd	-0.06867216
236	0x3d246f5a	0.040145256
237	0x3e041a67	0.12900697
238	0xbc934090	-0.017975122
239	0xbcccd893	-0.025005614
240	0x3e013194	0.12616569
241	0x3d5761bf	0.052583452
242	0x3df6483f	0.120254986
243	0x3e121e24	0.1426931
244	0x3cfc542d	0.030801857
245	0x3e1dcf13	0.15411024
246	0x3d9c48cd	0.07631073
247	0x3b1fd2cc	0.002438712
248	0x3dd8a3f4	0.105781466
249	0x3db2b873	0.08726587
250	0xbcbc9b8d	-0.023023391
251	0xbdff209a	-0.1245739
252	0x3deabd1b	0.1146185
253	0xbd91a9d6	-0.07112472
254	0x3e1114fc	0.14168161
255	0x3dca71c4	0.0988498

arith.constant4 f4 [8, 3, 3, 16]
0	0x3e13f5b5	0.14449199
1	0xbc3c17c2	-0.011480274
2	0xbd58f754	-0.052970245
3	0xbdc8ecce	-0.09810792
4	0x3dca0ba1	0.09865499
5	0x3d3c3cfd	0.0459566
6	0x3c5e9ab7	0.013586692
7	0xbddd1b8d	-0.107962705
8	0x3d4e13e2	0.05031193
9	0x3c3ad5ee	0.011403544
10	0xbd972356	-0.07379787
11	0x3d046e85	0.032331962
12	0x3d0af24d	0.033922482
13	0x39563a65	0.00020430384
14	0x3cd74a59	0.026280569
15	0x3dac0386	0.083991095
16	0xbdac06a3	-0.08399703
17	0x3e25481c	0.16140789
18	0x3df40dc3	0.11916687
19	0xbe0fd5ec	-0.14046448
20	0xbd506377	-0.050876107
21	0x3d8cf47d	0.0688257
22	0xbbb9bf43	-0.005668552
23	0x3dac28b0	0.08406198
24	0xbd38568f	-0.045004424
25	0xbd953d65	-0.07287101
26	0xbe10d312	-0.14143017
27	0x3cbf352c	0.023340784
28	0x3ce3b70b	0.027797243
29	0x3da1bf9e	0.07897876
30	0x3cbee2e1	0.023301544
31	0x3d92f138	0.07174915
32	0xbdba85a6	-0.09107523
33	0xbdf0bf09	-0.11755187
34	0x3e174d29	0.14775528
35	0xbc950a2f	-0.018193332
36	0xbdbb61eb	-0.09149536
37	0x3e01adb9	0.12663926
38	0x3e2445fe	0.16042325
39	0x3db1a6a9	0.08674366
40	0xbd814f14	-0.06313911
41	0xbd8c1acd	-0.06841049
42	0xbdf2c503	-0.11853983
43	0xbd80c2a4	-0.06287125
44	0xbd936513	-0.07197013
45	0x3d76a48f	0.06021553
46	0xbcfc9438	-0.030832395
47	0x3d201d21	0.03909028
48	0x3cabfb13	0.020993745
49	0xbe2372ac	-0.15961713
50	0xbd8930d3	-0.066987656
51	0x3d47ecb4	0.048809722
52	0xbcfb26ae	-0.030658092
53	0xbd68e8e4	-0.056862727
54	0xbe08582f	-0.1331489
55	0x3dfea64a	0.12434061
56	0xbbbde718	-0.005795371
57	0xbe1eea96	-0.15519175
58	0x3e04f33f	0.12983416
59	0x3e2363a2	0.15955976
60	0x3e190bea	0.14945951
61	0x3cfc2723	0.03078038
62	0xbe091a0b	-0.13388841
63	0xbd988f6e	-0.07449232
64	0x3df7e887	0.12104898
65	0x3d67fbda	0.05663667
66	0xbdcfe747	-0.101515345
67	0xbdaa5e9b	-0.08318826
68	0xbe2342fd	-0.15943523
69	0x3db018a1	0.085984476
70	0x3e12fdfa	0.14354697
71	0xbbc01a41	-0.0058625047
72	0xbc2f471c	-0.010698106
73	0xbe2a49d2	-0.16629723
74	0x3d03a28b	0.032137435
75	0xbd8df3e9	-0.06931288
76	0x3e19d6ac	0.15023297
77	0xbdd5118a	-0.10403736
78	0xbe1cecbf	-0.15324686
79	0x3e1b45df	0.15163372
80	0xbd8edab7	-0.0697531
81	0x3d9f3cc4	0.07775262
82	0xbd5a7ade	-0.05333983
83	0x3cdbb2e3	0.026818698
84	0x3d7aa509	0.061192546
85	0xbe11b4b3	-0.14229088
86	0xbe068d32	-0.13139799
87	0x3d136e90	0.035994112
88	0xbe299efe	-0.16564557
89	0xbd2e44b7	-0.042546
90	0x3dbbdb55	0.09172694
91	0x3dbfd399	0.09366531
92	0xbd82dc7d	-0.06389711
93	0x3d87bc8b	0.066277586
94	0x3cfc1098	0.030769631
95	0x3c2ae8de	0.010431496
96	0xbde80abc	-0.113301724
97	0xbe0b1e0e	-0.13585684
98	0x3c0c21a8	0.008552946
99	0x3e0e19f7	0.13877092
100	0xbe22622f	-0.15857767
101	0xbc66438a	-0.0140541885
102	0xbdae695f	-0.08516192
103	0x3df299b6	0.11845724
104	0xbc8a79c9	-0.016903775
105	0xbcf98299	-0.030457782
106	0xbc9b846d	-0.018984044
107	0xb9c457c0	-0.00037449412
108	0x3e218862	0.15774682
109	0x3d026110	0.031830847
110	0xbd7679aa	-0.06017462
111	0xbde541fd	-0.11194227
112	0x3db8fa41	0.09032107
113	0x3cb68b3a	0.022283185
114	0x3dfb5e7e	0.12273882
115	0x3de4d9c8	0.11174351
116	0x3dd42ff0	0.10360706
117	0xbcc723b5	-0.024309019
118	0x3d5733df	0.052539703
119	0x3d2c94fd	0.042134274
120	0xbcd4e41a	-0.025987674
121	0x3cd59670	0.02607271
122	0x3d1a1df3	0.037626218
123	0x3ce3e100	0.02781725
124	0x3d0dbcec	0.034603998
125	0x3df321be	0.1187167
126	0xbda91bfc	-0.08257291
127	0xbde7b387	-0.11313539
128	0xbe13f0d6	-0.1444734
129	0x3de9eab3	0.114217184
130	0x3e21586b	0.15756385
131	0x3e21b852	0.15792969
132	0x3e08a67d	0.1334476
133	0x3e276c67	0.16349946
134	0x3e282d9d	0.1642365
135	0xbe05a1c6	-0.13049993
136	0xbdd426f0	-0.10358989
137	0x3da6e617	0.08149355
138	0x3ca84d14	0.020544566
139	0xbc9f4582	-0.019442324
140	0x3de355fb	0.11100384
141	0xbb94f1a5	-0.004545408
142	0x3e215082	0.15753368
143	0xbc957f9a	-0.018249322
144	0xbe09f76e	-0.13473293
145	0x3d130aab	0.035898846
146	0xbd82bfdb	-0.0638425
147	0xbe2261f6	-0.15857682
148	0xbdda0d76	-0.10647099
149	0xbcf91fee	-0.030410733
150	0xbe071df7	-0.13195024
151	0xbdb9cd29	-0.09072334
152	0x3d2783ef	0.040897306
153	0xbd6e8572	-0.058232732
154	0xbe1ef857	-0.15524422
155	0xbe041568	-0.12898791
156	0x3e13ba2c	0.14426488
157	0x3deafd21	0.11474062
158	0xbd5b74be	-0.05357813
159	0xbe23e20c	-0.16004199
160	0xbde1e3f1	-0.110298045
161	0x3e1cb10b	0.15301912
162	0xbc82e0cb	-0.01597633
163	0x3db553d3	0.08853879
164	0x3c626bcc	0.013819646
165	0xbd0cfbc2	-0.034419782
166	0xbe0b684a	-0.13614002
167	0xba880129	-0.0010376322
168	0x3de3ed40	0.11129236
169	0xbccb46d3	-0.024814045
170	0xbdab6d53	-0.08370461
171	0xbc308531	-0.010773943
172	0xbda0fa29	-0.07860214
173	0x3e0533ea	0.13008085
174	0x3d19d819	0.037559602
175	0x3b855cff	0.004069924
176	0x3d709ae7	0.058741476
177	0x3d3e38f2	0.046441026
178	0x3e287ce8	0.16453898
179	0xbd9868fe	-0.07441901
180	0xbe037e59	-0.12841167
181	0x3d129506	0.03578665
182	0x3e128004	0.14306647
183	0xbdded7f5	-0.10881034
184	0xbd5f4382	-0.05450774
185	0x3de65c54	0.11248079
186	0xbe18d735	-0.14925845
187	0xbe167ad6	-0.14695296
188	0xbd613346	-0.05498054
189	0x3e18eb9a	0.14933625
190	0x3dda06ae	0.10645805
191	0xbe1210df	-0.14264248
192	0x3d987701	0.07444573
193	0x3e280830	0.16409373
194	0xbcfcdfe3	-0.030868476
195	0xbd8d7862	-0.06907727
196	0x3e11ab38	0.14225471
197	0x3d96f909	0.073717184
198	0x3c95390f	0.018215684
199	0xbe0cc1a0	-0.13745737
200	0x3e1b6574	0.1517542
201	0xbd8acc5a	-0.06777258
202	0xbe0653b3	-0.13117866
203	0xbdfd5d0d	-0.12371264
204	0x3e0b68f1	0.1361425
205	0xbdfd7383	-0.12375548
206	0x3df9ff7c	0.12206933
207	0x3e011c68	0.12608492
208	0x3cf5fc05	0.030027399
209	0x3cb0109c	0.021492295
210	0x3bf351db	0.0074255294
211	0xbbff9882	-0.007800163
212	0x3d34c060	0.044128776
213	0xbe16f99d	-0.14743657
214	0xbdc19063	-0.09451368
215	0xbd4d6f68	-0.050155073
216	0x3dab6d58	0.08370465
217	0xbd2f4c61	-0.04279745
218	0x3d88790e	0.06663714
219	0xbc05a094	-0.008155961
220	0xbc8df387	-0.017328037
221	0xbd5228c6	-0.051308416
222	0x3d581d0f	0.052762087
223	0x3d2a9358	0.041644424
224	0xbdf7a05a	-0.120911315
225	0xbdbafa7b	-0.091298066
226	0x3d7397e0	0.05947101
227	0xbe0e1490	-0.13875031
228	0xbe1e07c4	-0.1543265
229	0x3dec8080	0.11547947
230	0xbe259f79	-0.16174115
231	0x3c9fab37	0.019490821
232	0x3db19c54	0.08672395
233	0x3cb19c1c	0.021680884
234	0xbc90921c	-0.017647795
235	0xbda0d45b	-0.078530036
236	0x3d51cac6	0.05121877
237	0xbd9148ce	-0.070939645
238	0xbe095286	-0.13410386
239	0xbced5d08	-0.028975025
240	0xbe001d8c	-0.12511271
241	0xbddeb8a5	-0.10875062
242	0xbda23256	-0.07919757
243	0xbd0b53ed	-0.034015585
244	0xbda5ec75	-0.08101741
245	0x3dd46a00	0.103717804
246	0x3bb513c5	0.0055260384
247	0xbe053b72	-0.13010958
248	0x3d9335c0	0.071879864
249	0x3dfd7b95	0.12377087
250	0x3d096d0e	0.03355127
251	0x3e13828b	0.14405267
252	0x3d323501	0.04350758
253	0xbe001b69	-0.12510456
254	0x3dfa6ac6	0.12227397
255	0x3d483309	0.048876796

arith.constant5 f4 [8]
0	0x00000000	0.0
1	0x00000000	0.0
2	0x00000000	0.0
3	0x00000000	0.0
4	0x00000000	0.0
5	0x00000000	0.0
6	0x00000000	0.0
7	0x00000000	0.0

arith.constant6 f4 [64]
0	0x00000000	0.0
1	0x00000000	0.0
2	0x00000000	0.0
3	0x00000000	0.0
4	0x00000000	0.0
5	0x00000000	0.0
6	0x00000000	0.0
7	0x00000000	0.0
8	0x00000000	0.0
9	0x00000000	0.0
10	0x00000000	0.0
11	0x00000000	0.0
12	0x00000000	0.0
13	0x00000000	0.0
14	0x00000000	0.0
15	0x00000000	0.0
16	0x00000000	0.0
17	0x00000000	0.0
18	0x00000000	0.0
19	0x00000000	0.0
20	0x00000000	0.0
21	0x00000000	0.0
22	0x00000000	0.0
23	0x00000000	0.0
24	0x00000000	0.0
25	0x00000000	0.0
26	0x00000000	0.0
27	0x00000000	0.0
28	0x00000000	0.0
29	0x00000000	0.0
30	0x00000000	0.0
31	0x00000000	0.0
32	0x00000000	0.0
33	0x00000000	0.0
34	0x00000000	0.0
35	0x00000000	0.0
36	0x00000000	0.0
37	0x00000000	0.0
38	0x00000000	0.0
39	0x00000000	0.0
40	0x00000000	0.0
41	0x00000000	0.0
42	0x00000000	0.0
43	0x00000000	0.0
44	0x00000000	0.0
45	0x00000000	0.0
46	0x00000000	0.0
47	0x00000000	0.0
48	0x00000000	0.0
49	0x00000000	0.0
50	0x00000000	0.0
51	0x00000000	0.0
52	0x00000000	0.0
53	0x00000000	0.0
54	0x00000000	0.0
55	0x00000000	0.0
56	0x00000000	0.0
57	0x00000000	0.0
58	0x00000000	0.0
59	0x00000000	0.0
60	0x00000000	0.0
61	0x00000000	0.0
62	0x00000000	0.0
63	0x00000000	0.0

arith.constant7 f4 [16, 5, 5, 2]
0	0xbdda4da3	-0.10659339
1	0x3c40fe0a	0.011779318
2	0x3bc096ed	0.0058773668
3	0x3d7365ae	0.05942314
4	0xbcfad2d8	-0.030618116
5	0x3b7a2c38	0.003817333
6	0xbc92b0f4	-0.017906643
7	0x3db180eb	0.08667167
8	0x3d84fb6e	0.06493269
9	0xbd956ccb	-0.07296141
10	0xbd72a1e7	-0.059236433
11	0xbd718f30	-0.058974445
12	0xbd9cf35a	-0.07663603
13	0xbd3aff8d	-0.04565387
14	0x3c58cad8	0.0132319555
15	0xbd444f4e	-0.047927193
16	0x3cc5b44a	0.02413382
17	0x3c06f99b	0.0082382215
18	0xbd7ebd25	-0.0621921
19	0x3d5ae444	0.053440347
20	0xbd4ecce0	-0.050488353
21	0xbdae2de3	-0.08504846
22	0xbdd4c83c	-0.10389754
23	0xbda666eb	-0.08125099
24	0x3d85f22b	0.065403305
25	0x3d8f3d07	0.06994062
26	0xbd714894	-0.058907107
27	0x3d591d5d	0.05300652
28	0x3d643b2a	0.055720486
29	0x3cc70ff9	0.024299609
30	0xbdc3c598	-0.095591724
31	0x3d483272	0.048876233
32	0xbd9e0ee4	-0.07717684
33	0x3c5d352c	0.013501447
34	0xbb78b77c	-0.0037951162
35	0xbd21e3e3	-0.03952397
36	0x3deb1111	0.114778645
37	0xbc97b002	-0.018516544
38	0xbc75c2b2	-0.015000032
39	0xbcf8228f	-0.030289916
40	0xbc358fcf	-0.01108165
41	0xbd47a99a	-0.04874573
42	0xbccfff6c	-0.02539035
43	0xbd8fea6c	-0.07027134
44	0x3c885428	0.016641691
45	0xbc8e5c63	-0.017378038
46	0xbd11f86f	-0.035637315
47	0xbd988368	-0.07446939
48	0x3db6de15	0.089290775
49	0xbd88ba53	-0.066761635
50	0xbd94087b	-0.0722818
51	0x3d49a64e	0.049230866
52	0x3ddb7fa9	0.107177086
53	0xbd39e4e2	-0.045384295
54	0x3de95ce5	0.11394671
55	0xbd02354f	-0.03178912
56	0x3d81c4ea	0.063363865
57	0x3daf538c	0.08560857
58	0xbcc08129	-0.023499088
59	0x3d15ce5b	0.03657375
60	0x3cf88a22	0.030339304
61	0xbdcd96cf	-0.1003853
62	0x3d43a30a	0.047762908
63	0x3ddda685	0.10822777
64	0x3c93b1b4	0.018029071
65	0x3da73787	0.08164888
66	0x3d749bb0	0.059718788
67	0x3d8346d8	0.06409997
68	0x3d324e99	0.043531988
69	0x3c569d79	0.013099068
70	0x3d18cd01	0.037304882
71	0x3d59a6ea	0.053137697
72	0x3de0e495	0.109810986
73	0xbd13dac3	-0.0360973
74	0xbdc454ac	-0.095864624
75	0xbd251102	-0.040299423
76	0x3c354839	0.0110645825
77	0x3d79089a	0.06079922
78	0x3dbd504d	0.09243832
79	0x3c93c159	0.018036531
80	0x3dc1747e	0.09446047
81	0x3de298f1	0.110643275
82	0xbd05be03	-0.032651912
83	0x3b07d13e	0.0020724083
84	0x3d9dbbd5	0.07701842
85	0xbbd7c753	-0.0065850406
86	0xbd8ce37d	-0.068793274
87	0x3d8958d1	0.067063935
88	0xbbee08b5	-0.0072642216
89	0xbd6627ee	-0.056190424
90	0x3dd61407	0.10453039
91	0xbdd21522	-0.10257937
92	0xbca0e680	-0.019641161
93	0x3b7daf7f	0.003870934
94	0x3d7606c0	0.06006503
95	0x3de8aaf7	0.11360734
96	0x3dec041b	0.115242206
97	0xbdb4b0b1	-0.08822764
98	0xbd49afd8	-0.049239963
99	0x3c948090	0.01812771
100	0xbd9ac1e5	-0.07556514
101	0xbda59a78	-0.08086103
102	0xbdcb3260	-0.09921718
103	0x3c928b5e	0.017888721
104	0xba5f2e4c	-0.00085136737
105	0xbdeb8992	-0.11500849
106	0xbd284958	-0.04108557
107	0xbde18f87	-0.11013704
108	0xbce19af9	-0.027539717
109	0xbd824d89	-0.06362445
110	0x3d1be171	0.038056795
111	0x3d74af0b	0.059737246
112	0xbcddcbbf	-0.027074693
113	0xbc0d7e24	-0.008636031
114	0x3c5403e8	0.012940384
115	0xbda80288	-0.08203608
116	0xbb348b33	-0.002754879
117	0xbd9dddae	-0.07708298
118	0x3db4327d	0.087986924
119	0xbd37d1b9	-0.04487774
120	0x3d234199	0.03985748
121	0xbdae433e	-0.08508919
122	0xbd2b576f	-0.04183143
123	0x3ddca9b4	0.10774556
124	0xbdb1e133	-0.086855315
125	0xbd978c9a	-0.073998645
126	0x3d9cef1e	0.076627955
127	0xbd7ab22a	-0.061205067
128	0xbc494a46	-0.012285775
129	0xbda63c5e	-0.08116983
130	0x3d3e37eb	0.046440046
131	0xbd2b21f1	-0.041780416
132	0xbd4c9bba	-0.0499532
133	0x3dbc052d	0.09180675
134	0x3da794e3	0.08182695
135	0x3d2d29cc	0.04227619
136	0x3da0485d	0.07826302
137	0x3c0ceb26	0.008600986
138	0x3bb4260c	0.0054976996
139	0xbde95484	-0.11393073
140	0x3cf55fcc	0.029952906
141	0x3d3f2bf6	0.046672784
142	0x3cbe0fc7	0.023200883
143	0x3ddd49f9	0.10805125
144	0x3d333c47	0.043758657
145	0xbaf2009b	-0.0018463315
146	0xbc6c687e	-0.01442921
147	0x3da0cb40	0.07851267
148	0xbdcbc0dc	-0.099488944
149	0xbd189898	-0.0372549
150	0xbdddbecb	-0.108274065
151	0x3d716f64	0.05894412
152	0xbb3d0aa4	-0.0028845454
153	0x3ce7882f	0.02826318
154	0x3d3c8a9a	0.04603062
155	0x3dca9b09	0.09892852
156	0xbd4fc670	-0.050726354
157	0xbdd2cdaf	-0.10293137
158	0x3bdb43ad	0.006691417
159	0xbd9bb477	-0.0760278
160	0x3c9e2cb1	0.01930842
161	0x3dc03ea1	0.093869455
162	0x3de2f997	0.11082762
163	0x3ddbdbfe	0.107353196
164	0xbd76bb7e	-0.0602374
165	0xbd5c7931	-0.053826515
166	0xbdcd74ee	-0.10032068
167	0x3db9acda	0.09066172
168	0xbd5c4332	-0.05377502
169	0xbc590a3d	-0.01324707
170	0x3daa6c07	0.08321386
171	0xbd042785	-0.03226425
172	0xbd5b89da	-0.053598262
173	0xbb92137b	-0.0044578887
174	0xbbf84284	-0.0075762887
175	0xbcf5e959	-0.030018495
176	0xbdaa0b3c	-0.08302924
177	0x3d023d25	0.031796593
178	0xbd737e68	-0.059446722
179	0x3c0f8fcc	0.008762311
180	0xbdcaf26c	-0.099095196
181	0xba17538c	-0.00057726423
182	0x3d0d7d16	0.03454312
183	0xbd46da26	-0.048547886
184	0x3d9f9a92	0.07793154
185	0x3d8fa476	0.0701379
186	0xbc7be695	-0.015374799
187	0xbd928b18	-0.07155436
188	0xbc09224d	-0.008369994
189	0xbacfce2c	-0.0015854291
190	0x3cf2846a	0.029604156
191	0x3d9bbee3	0.07604768
192	0xbc8b4109	-0.016998785
193	0xbd7c2158	-0.061555237
194	0x3c1eeac8	0.009699531
195	0xbd9de3d8	-0.07709473
196	0x3d424c5e	0.04743611
197	0x3cfb791e	0.030697402
198	0x3db601f2	0.0888709
199	0xbdc38f38	-0.09548801
200	0xbd4539fe	-0.04815101
201	0xbc90a5d9	-0.017657207
202	0x3dce6093	0.10077014
203	0xbd9b2133	-0.075746916
204	0x3d885a79	0.06657881
205	0x3de795fa	0.11307903
206	0x3dd5dbac	0.1044229
207	0xbd6d143a	-0.057880618
208	0xbde217ca	-0.11039694
209	0x3ccedbb7	0.025251253
210	0xbdde66cd	-0.108594514
211	0xbdcf042a	-0.10108216
212	0x3ceb7b77	0.028745396
213	0x3c36458f	0.0111249825
214	0x3d278d49	0.040906224
215	0x3da6ee3c	0.08150908
216	0xbd890e97	-0.06692236
217	0xbdc26b5b	-0.09493133
218	0x3d2a447c	0.041569218
219	0x3d27d92e	0.040978603
220	0x3ca36f70	0.019950598
221	0x3b1c214c	0.0023823557
222	0xbd491d02	-0.04909993
223	0x3d800594	0.06251064
224	0x3ddcc94b	0.10780581
225	0xbd5e76d4	-0.054312542
226	0x3db59ef9	0.08868212
227	0xbd8d8821	-0.0691073
228	0x3dc3e5f4	0.095653445
229	0xbd5383aa	-0.051639237
230	0xbd1a3d3f	-0.037656065
231	0xbc898798	-0.016788289
232	0x3a33b044	0.0006854574
233	0x3dc7349e	0.09726833
234	0xbd6136ca	-0.05498389
235	0xbbe86de2	-0.007093177
236	0x3dc189e8	0.09450132
237	0xbdad88c4	-0.084733516
238	0x3dd6d334	0.104895025
239	0xbd86670f	-0.065626256
240	0xbd6a8d02	-0.05726338
241	0xbcdf9244	-0.027291425
242	0x3d0975a0	0.03355944
243	0xbd0a9ca7	-0.0338408
244	0x3dc8e1e0	0.09808707
245	0xbc245d8a	-0.010032067
246	0x3c70a907	0.014688737
247	0xbd3e6969	-0.046487246
248	0xbd1f30dc	-0.038864955
249	0xbd6187f7	-0.055061307
250	0x3d041182	0.03224326
251	0xbbb11abe	-0.0054047992
252	0x3d0d86d1	0.0345524
253	0x3d7ebded	0.062192846
254	0xbd469bc0	-0.04848838
255	0xbc23fe38	-0.010009341

arith.constant8 f4 [16]
0	0x00000000	0.0
1	0x00000000	0.0
2	0x00000000	0.0
3	0x00000000	0.0
4	0x00000000	0.0
5	0x00000000	0.0
6	0x00000000	0.0
7	0x00000000	0.0
8	0x00000000	0.0
9	0x00000000	0.0
10	0x00000000	0.0
11	0x00000000	0.0
12	0x00000000	0.0
13	0x00000000	0.0
14	0x00000000	0.0
15	0x00000000	0.0

arith.constant9 f4 [160, 128]
0	0xbd8af060	-0.06784129
1	0xbda54b90	-0.08071053
2	0x3c52a45f	0.012856572
3	0x3d736101	0.059418682
4	0x3cc9b24f	0.024621157
5	0xbb121422	-0.0022289832
6	0x3cd6feba	0.02624451
7	0x3d22ebb6	0.039775573
8	0xbb1cdb4a	-0.0023934417
9	0xbdba2a29	-0.09090073
10	0xbde9a475	-0.11408321
11	0xbde1c57d	-0.11023996
12	0xbce51631	-0.027964683
13	0x3d07cd4f	0.033154782
14	0xbd7a31f0	-0.06108278
15	0x3d189298	0.037249178
16	0x3dbfe1ed	0.09369264
17	0x3d640dd2	0.055677243
18	0x3df6d8f4	0.12053099
19	0x3d2ea847	0.04264095
20	0xbd987de6	-0.07445888
21	0x3da3c25c	0.079960555
22	0xbcadb0fe	-0.02120256
23	0xbdc41489	-0.09574229
24	0xbdc3b2f2	-0.095556155
25	0x3d9a9b84	0.075491935
26	0x3d35b9f7	0.044366803
27	0x3d69c665	0.05707397
28	0xbd3521cc	-0.044221684
29	0x3d8d9501	0.06913186
30	0x3dd878c6	0.10569911
31	0xbd57f4b2	-0.052723594
32	0x3d9f8534	0.07789078
33	0x3c0d28ee	0.008615715
34	0x3d966221	0.07342935
35	0x3d1e577e	0.038657658
36	0xbe11fff9	-0.14257802
37	0x3c7323d8	0.014840089
38	0x3dfef20c	0.124485105
39	0xbdbb66e5	-0.09150485
40	0xbdf796a1	-0.12089277
41	0xbde690ba	-0.11258073
42	0xbc95bef0	-0.018279523
43	0x3e0ffc73	0.14061145
44	0xbd87d1f7	-0.066318445
45	0x3d8f192e	0.069872245
46	0xbe014e80	-0.12627602
47	0xbca208c7	-0.019779576
48	0xbd035058	-0.032059044
49	0x3d1e3716	0.038626753
50	0xbe0d5f56	-0.13805899
51	0x3d26e1fd	0.040742863
52	0xbc8e9574	-0.01740525
53	0xbca159bb	-0.019696107
54	0x3dd682ec	0.1047419
55	0xbd95b54e	-0.07309972
56	0xbd82d3fd	-0.0638809
57	0xbdb6038f	-0.088873975
58	0x3ce72ca4	0.028219528
59	0xbe0aface	-0.13572237
60	0x3da739eb	0.08165344
61	0xbdfb2004	-0.12261966
62	0x3dffefaf	0.12496888
63	0x3c8b832d	0.017030323
64	0x3de2f4fa	0.11081882
65	0xbd340fb3	-0.043960284
66	0x3baf3408	0.005346779
67	0xbd960446	-0.07325034
68	0x3def8edb	0.116971694
69	0x3db71253	0.08939042
70	0xbd868750	-0.065687776
71	0x3da734e2	0.081643835
72	0xbd8da16d	-0.06915555
73	0x3de494d9	0.11161203
74	0xbd3406a9	-0.043951664
75	0xbdbdd8e0	-0.09269881
76	0x3d6b8217	0.05749711
77	0x3d48770a	0.04894165
78	0x3d7caa11	0.061685625
79	0x3e133ced	0.1437871
80	0x3de1c106	0.110231444
81	0x3ce5cfbd	0.028053159
82	0x3d7d1e90	0.061796725
83	0x3d20b59a	0.03923569
84	0x3e015200	0.12628937
85	0x3df12de9	0.11776335
86	0x3d068b94	0.032847956
87	0x3c9acf0e	0.01889756
88	0xbc0bce3b	-0.008533056
89	0x3c30bc6a	0.010787109
90	0xbe0c274f	-0.1368687
91	0xbc756a07	-0.014978892
92	0xbd9a8491	-0.07544816
93	0x3d50be42	0.050962694
94	0xbd8377a9	-0.06419308
95	0x3d3f5acc	0.04671745
96	0x3da62bc3	0.08113816
97	0x3c7496a5	0.014928495
98	0x3c9d678c	0.019214414
99	0x3d558037	0.05212423
100	0xbd2f4d2a	-0.0427982
101	0xbdea9ceb	-0.11455711
102	0x3d43eac7	0.047831323
103	0x3cba8b7e	0.022771593
104	0xbd4b352c	-0.049611256
105	0x3ccf70d2	0.025322352
106	0xbd1dc076	-0.038513623
107	0x3dd41f72	0.1035756
108	0xbcd8734d	-0.026422167
109	0x3cd68bfb	0.026189795
110	0x3c864b55	0.016393343
111	0x3d18bf85	0.037292022
112	0x3df443d0	0.11926997
113	0x3bd6aaf1	0.0065511395
114	0xbdc935b1	-0.09824694
115	0x3d697a34	0.057001308
116	0x3d2e603c	0.042572245
117	0xbdaf0f71	-0.08547867
118	0xbe130529	-0.14357437
119	0x3d985c50	0.07439482
120	0xbd0f094e	-0.034920983
121	0x3bef777c	0.007307945
122	0xbe01d7bd	-0.12679954
123	0xbb61e4d8	-0.0034468677
124	0x3dfd53ca	0.12369497
125	0xbcfcf53b	-0.030878654
126	0x3dea0939	0.1142754
127	0xbde68641	-0.11256076
128	0xbb82b0df	-0.00398837
129	0x3d67f2ab	0.05662791
130	0xbe04a07c	-0.12951845
131	0xbd6aa2ba	-0.057284094
132	0x3d8d1018	0.06887835
133	0xbdbcbada	-0.092153266
134	0x3e0eb5ec	0.13936585
135	0x3d2c3a0e	0.042047553
136	0xbde9b353	-0.114111565
137	0xbd6560a7	-0.056000378
138	0x3e056fd2	0.13030937
139	0xbdf01b5c	-0.117239684
140	0x3d4562cc	0.048189923
141	0x3dc9752a	0.098368004
142	0x3d172fde	0.036910884
143	0x3daab840	0.08335924
144	0xbd94e9a2	-0.072711244
145	0xbd8a4920	-0.06752229
146	0x3e040d5b	0.1289572
147	0x3af0f137	0.0018382435
148	0x3d2fccd9	0.042919967
149	0x3dae3268	0.08505708
150	0x3d8d6488	0.069039404
151	0x3e1283c0	0.14308071
152	0x3df0ffb6	0.11767523
153	0xbd9d4e5c	-0.076809615
154	0x3d8db157	0.069185905
155	0xbd85f0e3	-0.06540086
156	0x3c961a04	0.018322952
157	0xbceebea0	-0.029143631
158	0x3d0bf570	0.034169614
159	0xbe10490b	-0.14090364
160	0x3e0ebc34	0.13938981
161	0xbdd69304	-0.1047726
162	0xbca7e7ba	-0.020496238
163	0x3ce819f7	0.028332694
164	0xbd8cc55b	-0.0687358
165	0x3deede9d	0.11663554
166	0x3d874061	0.06604076
167	0xbe0898d5	-0.13339551
168	0xbba2e671	-0.0049713184
169	0x3e100b2d	0.14066763
170	0x3cbdad1b	0.023153832
171	0x3ddf0531	0.10889662
172	0xbe073e7c	-0.1320743
173	0xbcc3bc69	-0.023893552
174	0xbe0c4c9f	-0.13701104
175	0x3cb412f7	0.0219817
176	0x3db2b9eb	0.08726867
177	0xbdc55d08	-0.09636885
178	0xbdc48601	-0.09595872
179	0x3d7ae4a1	0.061253194
180	0x3cce4577	0.025179608
181	0xbdaeeb88	-0.08541018
182	0xbdd1f025	-0.10250882
183	0xbdeb1cdd	-0.114801146
184	0x3dba01bb	0.09082361
185	0xbe058e86	-0.1304265
186	0x3d417a89	0.047236
187	0x3d4c69cd	0.049905587
188	0x3e109987	0.14121066
189	0x3ddf0f43	0.10891583
190	0xbc23c077	-0.009994618
191	0xba4aaf9f	-0.0007731858
192	0xbd958e78	-0.073025644
193	0xbc858544	-0.016298898
194	0x3d9bcd96	0.07607572
195	0xbd7ccbee	-0.06171792
196	0x3e0f154e	0.13972971
197	0x3db17763	0.08665349
198	0x3e01c98a	0.12674537
199	0xbd58e0f6	-0.052948914
200	0x3bdfa4cb	0.006825065
201	0xbdf6d0d3	-0.12051549
202	0xbd0b08d5	-0.03394397
203	0xbdb092e8	-0.0862177
204	0xbd803409	-0.06259925
205	0x3daa56d7	0.08317345
206	0x3d9818a5	0.074265756
207	0x3ddea63f	0.10871553
208	0xbdc93375	-0.09824268
209	0xbe0673a3	-0.1313005
210	0xbd92a072	-0.07159509
211	0x3c462a09	0.012094983
212	0xbd6e8a31	-0.05823726
213	0x3d939c50	0.072075486
214	0xbd154cd2	-0.036450215
215	0x3db52fa5	0.08846978
216	0xbd9b7105	-0.07589916
217	0xbc5a937d	-0.013340828
218	0xbe1147ae	-0.141875
219	0xbdc44d25	-0.09585027
220	0xbd61d8d9	-0.055138443
221	0xbddc8f1b	-0.10769483
222	0xbdb5108c	-0.08841047
223	0x3d7a4015	0.06109627
224	0x3dda77c2	0.10667373
225	0x3c397cc0	0.011321247
226	0xbd82695c	-0.06367752
227	0x3de6f3b0	0.112769485
228	0x3e03c565	0.12868269
229	0xbd9fc0b7	-0.07800429
230	0xbd96ec9b	-0.07369348
231	0x3c5cadb9	0.013469153
232	0xbcd3a538	-0.025835618
233	0x3de977e3	0.1139982
234	0x3cb3b68d	0.021937633
235	0x3d25b4d4	0.040455654
236	0xbb20b972	-0.0024524597
237	0x3dd9ed70	0.10640991
238	0x3dd2b176	0.10287754
239	0xbcf8b421	-0.03035933
240	0x3db6acd4	0.08919683
241	0xbdc122e5	-0.09430484
242	0x3cedf3af	0.029046861
243	0xbbaafd8b	-0.005218213
244	0xbd3f4f0e	-0.04670625
245	0x3df9db66	0.1220005
246	0xbdfad938	-0.122484624
247	0x3d62e5b2	0.055394836
248	0x3d8ad95b	0.067797385
249	0x3dff9804	0.124801666
250	0x3d4d476e	0.05011695
251	0xbd17abac	-0.037028953
252	0xbddc69e0	-0.107623816
253	0xbd50bc7e	-0.05096101
254	0xbda5bc1e	-0.08092521
255	0xbd92ac4d	-0.0716177
